<?xml version="1.0" ?>
<net name="torch-jit-export" version="11">
	<layers>
		<layer id="0" name="data" type="Parameter" version="opset1">
			<data shape="1,3,256,448" element_type="f32"/>
			<rt_info>
				<attribute name="fused_names" version="0" value="data"/>
			</rt_info>
			<output>
				<port id="0" precision="FP32" names="data">
					<dim>1</dim>
					<dim>3</dim>
					<dim>256</dim>
					<dim>448</dim>
					<rt_info>
						<attribute name="layout" version="0" layout="[N,C,H,W]"/>
					</rt_info>
				</port>
			</output>
		</layer>
		<layer id="1" name="Constant_4895" type="Const" version="opset1">
			<data element_type="f32" shape="1, 3, 1, 1" offset="0" size="12"/>
			<rt_info>
				<attribute name="fused_names" version="0" value="Constant_4895"/>
			</rt_info>
			<output>
				<port id="0" precision="FP32">
					<dim>1</dim>
					<dim>3</dim>
					<dim>1</dim>
					<dim>1</dim>
				</port>
			</output>
		</layer>
		<layer id="2" name="Subtract_4896" type="Subtract" version="opset1">
			<data auto_broadcast="numpy"/>
			<rt_info>
				<attribute name="fused_names" version="0" value="Subtract_4896"/>
				<attribute name="preprocessing" version="0"/>
			</rt_info>
			<input>
				<port id="0" precision="FP32">
					<dim>1</dim>
					<dim>3</dim>
					<dim>256</dim>
					<dim>448</dim>
				</port>
				<port id="1" precision="FP32">
					<dim>1</dim>
					<dim>3</dim>
					<dim>1</dim>
					<dim>1</dim>
				</port>
			</input>
			<output>
				<port id="2" precision="FP32">
					<dim>1</dim>
					<dim>3</dim>
					<dim>256</dim>
					<dim>448</dim>
				</port>
			</output>
		</layer>
		<layer id="3" name="Constant_9872" type="Const" version="opset1">
			<data element_type="f32" shape="32, 3, 3, 3" offset="12" size="3456"/>
			<rt_info>
				<attribute name="fused_names" version="0" value="632, Constant_4897, Convolution_159, Divide_4898"/>
				<attribute name="preprocessing" version="0"/>
			</rt_info>
			<output>
				<port id="0" precision="FP32">
					<dim>32</dim>
					<dim>3</dim>
					<dim>3</dim>
					<dim>3</dim>
				</port>
			</output>
		</layer>
		<layer id="4" name="Convolution_159" type="Convolution" version="opset1">
			<data strides="2, 2" dilations="1, 1" pads_begin="1, 1" pads_end="1, 1" auto_pad="explicit"/>
			<rt_info>
				<attribute name="fused_names" version="0" value="632, Constant_4897, Convolution_159, Divide_4898"/>
				<attribute name="preprocessing" version="0"/>
			</rt_info>
			<input>
				<port id="0" precision="FP32">
					<dim>1</dim>
					<dim>3</dim>
					<dim>256</dim>
					<dim>448</dim>
				</port>
				<port id="1" precision="FP32">
					<dim>32</dim>
					<dim>3</dim>
					<dim>3</dim>
					<dim>3</dim>
				</port>
			</input>
			<output>
				<port id="2" precision="FP32">
					<dim>1</dim>
					<dim>32</dim>
					<dim>128</dim>
					<dim>224</dim>
				</port>
			</output>
		</layer>
		<layer id="5" name="Reshape_179" type="Const" version="opset1">
			<data element_type="f32" shape="1, 32, 1, 1" offset="3468" size="128"/>
			<output>
				<port id="0" precision="FP32">
					<dim>1</dim>
					<dim>32</dim>
					<dim>1</dim>
					<dim>1</dim>
				</port>
			</output>
		</layer>
		<layer id="6" name="631" type="Add" version="opset1">
			<data auto_broadcast="numpy"/>
			<rt_info>
				<attribute name="fused_names" version="0" value="631, Concat_178, Reshape_179"/>
			</rt_info>
			<input>
				<port id="0" precision="FP32">
					<dim>1</dim>
					<dim>32</dim>
					<dim>128</dim>
					<dim>224</dim>
				</port>
				<port id="1" precision="FP32">
					<dim>1</dim>
					<dim>32</dim>
					<dim>1</dim>
					<dim>1</dim>
				</port>
			</input>
			<output>
				<port id="2" precision="FP32" names="631">
					<dim>1</dim>
					<dim>32</dim>
					<dim>128</dim>
					<dim>224</dim>
				</port>
			</output>
		</layer>
		<layer id="7" name="403" type="ReLU" version="opset1">
			<rt_info>
				<attribute name="fused_names" version="0" value="403"/>
			</rt_info>
			<input>
				<port id="0" precision="FP32">
					<dim>1</dim>
					<dim>32</dim>
					<dim>128</dim>
					<dim>224</dim>
				</port>
			</input>
			<output>
				<port id="1" precision="FP32" names="403">
					<dim>1</dim>
					<dim>32</dim>
					<dim>128</dim>
					<dim>224</dim>
				</port>
			</output>
		</layer>
		<layer id="8" name="Reshape_215" type="Const" version="opset1">
			<data element_type="f32" shape="32, 1, 1, 3, 3" offset="3596" size="1152"/>
			<output>
				<port id="0" precision="FP32">
					<dim>32</dim>
					<dim>1</dim>
					<dim>1</dim>
					<dim>3</dim>
					<dim>3</dim>
				</port>
			</output>
		</layer>
		<layer id="9" name="GroupConvolution_281" type="GroupConvolution" version="opset1">
			<data strides="1, 1" pads_begin="1, 1" pads_end="1, 1" dilations="1, 1" auto_pad="explicit"/>
			<rt_info>
				<attribute name="fused_names" version="0" value="GroupConvolution_281, Reshape_215"/>
			</rt_info>
			<input>
				<port id="0" precision="FP32">
					<dim>1</dim>
					<dim>32</dim>
					<dim>128</dim>
					<dim>224</dim>
				</port>
				<port id="1" precision="FP32">
					<dim>32</dim>
					<dim>1</dim>
					<dim>1</dim>
					<dim>3</dim>
					<dim>3</dim>
				</port>
			</input>
			<output>
				<port id="2" precision="FP32">
					<dim>1</dim>
					<dim>32</dim>
					<dim>128</dim>
					<dim>224</dim>
				</port>
			</output>
		</layer>
		<layer id="10" name="Reshape_301" type="Const" version="opset1">
			<data element_type="f32" shape="1, 32, 1, 1" offset="4748" size="128"/>
			<output>
				<port id="0" precision="FP32">
					<dim>1</dim>
					<dim>32</dim>
					<dim>1</dim>
					<dim>1</dim>
				</port>
			</output>
		</layer>
		<layer id="11" name="634" type="Add" version="opset1">
			<data auto_broadcast="numpy"/>
			<rt_info>
				<attribute name="fused_names" version="0" value="634, Concat_300, Reshape_301"/>
			</rt_info>
			<input>
				<port id="0" precision="FP32">
					<dim>1</dim>
					<dim>32</dim>
					<dim>128</dim>
					<dim>224</dim>
				</port>
				<port id="1" precision="FP32">
					<dim>1</dim>
					<dim>32</dim>
					<dim>1</dim>
					<dim>1</dim>
				</port>
			</input>
			<output>
				<port id="2" precision="FP32" names="634">
					<dim>1</dim>
					<dim>32</dim>
					<dim>128</dim>
					<dim>224</dim>
				</port>
			</output>
		</layer>
		<layer id="12" name="406" type="ReLU" version="opset1">
			<rt_info>
				<attribute name="fused_names" version="0" value="406"/>
			</rt_info>
			<input>
				<port id="0" precision="FP32">
					<dim>1</dim>
					<dim>32</dim>
					<dim>128</dim>
					<dim>224</dim>
				</port>
			</input>
			<output>
				<port id="1" precision="FP32" names="406">
					<dim>1</dim>
					<dim>32</dim>
					<dim>128</dim>
					<dim>224</dim>
				</port>
			</output>
		</layer>
		<layer id="13" name="638" type="Const" version="opset1">
			<data element_type="f32" shape="64, 32, 1, 1" offset="4876" size="8192"/>
			<rt_info>
				<attribute name="fused_names" version="0" value="638"/>
			</rt_info>
			<output>
				<port id="0" precision="FP32" names="638">
					<dim>64</dim>
					<dim>32</dim>
					<dim>1</dim>
					<dim>1</dim>
				</port>
			</output>
		</layer>
		<layer id="14" name="Convolution_330" type="Convolution" version="opset1">
			<data strides="1, 1" dilations="1, 1" pads_begin="0, 0" pads_end="0, 0" auto_pad="explicit"/>
			<rt_info>
				<attribute name="fused_names" version="0" value="Convolution_330"/>
			</rt_info>
			<input>
				<port id="0" precision="FP32">
					<dim>1</dim>
					<dim>32</dim>
					<dim>128</dim>
					<dim>224</dim>
				</port>
				<port id="1" precision="FP32">
					<dim>64</dim>
					<dim>32</dim>
					<dim>1</dim>
					<dim>1</dim>
				</port>
			</input>
			<output>
				<port id="2" precision="FP32">
					<dim>1</dim>
					<dim>64</dim>
					<dim>128</dim>
					<dim>224</dim>
				</port>
			</output>
		</layer>
		<layer id="15" name="Reshape_350" type="Const" version="opset1">
			<data element_type="f32" shape="1, 64, 1, 1" offset="13068" size="256"/>
			<output>
				<port id="0" precision="FP32">
					<dim>1</dim>
					<dim>64</dim>
					<dim>1</dim>
					<dim>1</dim>
				</port>
			</output>
		</layer>
		<layer id="16" name="637" type="Add" version="opset1">
			<data auto_broadcast="numpy"/>
			<rt_info>
				<attribute name="fused_names" version="0" value="637, Concat_349, Reshape_350"/>
			</rt_info>
			<input>
				<port id="0" precision="FP32">
					<dim>1</dim>
					<dim>64</dim>
					<dim>128</dim>
					<dim>224</dim>
				</port>
				<port id="1" precision="FP32">
					<dim>1</dim>
					<dim>64</dim>
					<dim>1</dim>
					<dim>1</dim>
				</port>
			</input>
			<output>
				<port id="2" precision="FP32" names="637">
					<dim>1</dim>
					<dim>64</dim>
					<dim>128</dim>
					<dim>224</dim>
				</port>
			</output>
		</layer>
		<layer id="17" name="409" type="ReLU" version="opset1">
			<rt_info>
				<attribute name="fused_names" version="0" value="409"/>
			</rt_info>
			<input>
				<port id="0" precision="FP32">
					<dim>1</dim>
					<dim>64</dim>
					<dim>128</dim>
					<dim>224</dim>
				</port>
			</input>
			<output>
				<port id="1" precision="FP32" names="409">
					<dim>1</dim>
					<dim>64</dim>
					<dim>128</dim>
					<dim>224</dim>
				</port>
			</output>
		</layer>
		<layer id="18" name="Reshape_386" type="Const" version="opset1">
			<data element_type="f32" shape="64, 1, 1, 3, 3" offset="13324" size="2304"/>
			<output>
				<port id="0" precision="FP32">
					<dim>64</dim>
					<dim>1</dim>
					<dim>1</dim>
					<dim>3</dim>
					<dim>3</dim>
				</port>
			</output>
		</layer>
		<layer id="19" name="GroupConvolution_452" type="GroupConvolution" version="opset1">
			<data strides="2, 2" pads_begin="1, 1" pads_end="1, 1" dilations="1, 1" auto_pad="explicit"/>
			<rt_info>
				<attribute name="fused_names" version="0" value="GroupConvolution_452, Reshape_386"/>
			</rt_info>
			<input>
				<port id="0" precision="FP32">
					<dim>1</dim>
					<dim>64</dim>
					<dim>128</dim>
					<dim>224</dim>
				</port>
				<port id="1" precision="FP32">
					<dim>64</dim>
					<dim>1</dim>
					<dim>1</dim>
					<dim>3</dim>
					<dim>3</dim>
				</port>
			</input>
			<output>
				<port id="2" precision="FP32">
					<dim>1</dim>
					<dim>64</dim>
					<dim>64</dim>
					<dim>112</dim>
				</port>
			</output>
		</layer>
		<layer id="20" name="Reshape_472" type="Const" version="opset1">
			<data element_type="f32" shape="1, 64, 1, 1" offset="15628" size="256"/>
			<output>
				<port id="0" precision="FP32">
					<dim>1</dim>
					<dim>64</dim>
					<dim>1</dim>
					<dim>1</dim>
				</port>
			</output>
		</layer>
		<layer id="21" name="640" type="Add" version="opset1">
			<data auto_broadcast="numpy"/>
			<rt_info>
				<attribute name="fused_names" version="0" value="640, Concat_471, Reshape_472"/>
			</rt_info>
			<input>
				<port id="0" precision="FP32">
					<dim>1</dim>
					<dim>64</dim>
					<dim>64</dim>
					<dim>112</dim>
				</port>
				<port id="1" precision="FP32">
					<dim>1</dim>
					<dim>64</dim>
					<dim>1</dim>
					<dim>1</dim>
				</port>
			</input>
			<output>
				<port id="2" precision="FP32" names="640">
					<dim>1</dim>
					<dim>64</dim>
					<dim>64</dim>
					<dim>112</dim>
				</port>
			</output>
		</layer>
		<layer id="22" name="412" type="ReLU" version="opset1">
			<rt_info>
				<attribute name="fused_names" version="0" value="412"/>
			</rt_info>
			<input>
				<port id="0" precision="FP32">
					<dim>1</dim>
					<dim>64</dim>
					<dim>64</dim>
					<dim>112</dim>
				</port>
			</input>
			<output>
				<port id="1" precision="FP32" names="412">
					<dim>1</dim>
					<dim>64</dim>
					<dim>64</dim>
					<dim>112</dim>
				</port>
			</output>
		</layer>
		<layer id="23" name="644" type="Const" version="opset1">
			<data element_type="f32" shape="128, 64, 1, 1" offset="15884" size="32768"/>
			<rt_info>
				<attribute name="fused_names" version="0" value="644"/>
			</rt_info>
			<output>
				<port id="0" precision="FP32" names="644">
					<dim>128</dim>
					<dim>64</dim>
					<dim>1</dim>
					<dim>1</dim>
				</port>
			</output>
		</layer>
		<layer id="24" name="Convolution_501" type="Convolution" version="opset1">
			<data strides="1, 1" dilations="1, 1" pads_begin="0, 0" pads_end="0, 0" auto_pad="explicit"/>
			<rt_info>
				<attribute name="fused_names" version="0" value="Convolution_501"/>
			</rt_info>
			<input>
				<port id="0" precision="FP32">
					<dim>1</dim>
					<dim>64</dim>
					<dim>64</dim>
					<dim>112</dim>
				</port>
				<port id="1" precision="FP32">
					<dim>128</dim>
					<dim>64</dim>
					<dim>1</dim>
					<dim>1</dim>
				</port>
			</input>
			<output>
				<port id="2" precision="FP32">
					<dim>1</dim>
					<dim>128</dim>
					<dim>64</dim>
					<dim>112</dim>
				</port>
			</output>
		</layer>
		<layer id="25" name="Reshape_521" type="Const" version="opset1">
			<data element_type="f32" shape="1, 128, 1, 1" offset="48652" size="512"/>
			<output>
				<port id="0" precision="FP32">
					<dim>1</dim>
					<dim>128</dim>
					<dim>1</dim>
					<dim>1</dim>
				</port>
			</output>
		</layer>
		<layer id="26" name="643" type="Add" version="opset1">
			<data auto_broadcast="numpy"/>
			<rt_info>
				<attribute name="fused_names" version="0" value="643, Concat_520, Reshape_521"/>
			</rt_info>
			<input>
				<port id="0" precision="FP32">
					<dim>1</dim>
					<dim>128</dim>
					<dim>64</dim>
					<dim>112</dim>
				</port>
				<port id="1" precision="FP32">
					<dim>1</dim>
					<dim>128</dim>
					<dim>1</dim>
					<dim>1</dim>
				</port>
			</input>
			<output>
				<port id="2" precision="FP32" names="643">
					<dim>1</dim>
					<dim>128</dim>
					<dim>64</dim>
					<dim>112</dim>
				</port>
			</output>
		</layer>
		<layer id="27" name="415" type="ReLU" version="opset1">
			<rt_info>
				<attribute name="fused_names" version="0" value="415"/>
			</rt_info>
			<input>
				<port id="0" precision="FP32">
					<dim>1</dim>
					<dim>128</dim>
					<dim>64</dim>
					<dim>112</dim>
				</port>
			</input>
			<output>
				<port id="1" precision="FP32" names="415">
					<dim>1</dim>
					<dim>128</dim>
					<dim>64</dim>
					<dim>112</dim>
				</port>
			</output>
		</layer>
		<layer id="28" name="Reshape_557" type="Const" version="opset1">
			<data element_type="f32" shape="128, 1, 1, 3, 3" offset="49164" size="4608"/>
			<output>
				<port id="0" precision="FP32">
					<dim>128</dim>
					<dim>1</dim>
					<dim>1</dim>
					<dim>3</dim>
					<dim>3</dim>
				</port>
			</output>
		</layer>
		<layer id="29" name="GroupConvolution_623" type="GroupConvolution" version="opset1">
			<data strides="1, 1" pads_begin="1, 1" pads_end="1, 1" dilations="1, 1" auto_pad="explicit"/>
			<rt_info>
				<attribute name="fused_names" version="0" value="GroupConvolution_623, Reshape_557"/>
			</rt_info>
			<input>
				<port id="0" precision="FP32">
					<dim>1</dim>
					<dim>128</dim>
					<dim>64</dim>
					<dim>112</dim>
				</port>
				<port id="1" precision="FP32">
					<dim>128</dim>
					<dim>1</dim>
					<dim>1</dim>
					<dim>3</dim>
					<dim>3</dim>
				</port>
			</input>
			<output>
				<port id="2" precision="FP32">
					<dim>1</dim>
					<dim>128</dim>
					<dim>64</dim>
					<dim>112</dim>
				</port>
			</output>
		</layer>
		<layer id="30" name="Reshape_643" type="Const" version="opset1">
			<data element_type="f32" shape="1, 128, 1, 1" offset="53772" size="512"/>
			<output>
				<port id="0" precision="FP32">
					<dim>1</dim>
					<dim>128</dim>
					<dim>1</dim>
					<dim>1</dim>
				</port>
			</output>
		</layer>
		<layer id="31" name="646" type="Add" version="opset1">
			<data auto_broadcast="numpy"/>
			<rt_info>
				<attribute name="fused_names" version="0" value="646, Concat_642, Reshape_643"/>
			</rt_info>
			<input>
				<port id="0" precision="FP32">
					<dim>1</dim>
					<dim>128</dim>
					<dim>64</dim>
					<dim>112</dim>
				</port>
				<port id="1" precision="FP32">
					<dim>1</dim>
					<dim>128</dim>
					<dim>1</dim>
					<dim>1</dim>
				</port>
			</input>
			<output>
				<port id="2" precision="FP32" names="646">
					<dim>1</dim>
					<dim>128</dim>
					<dim>64</dim>
					<dim>112</dim>
				</port>
			</output>
		</layer>
		<layer id="32" name="418" type="ReLU" version="opset1">
			<rt_info>
				<attribute name="fused_names" version="0" value="418"/>
			</rt_info>
			<input>
				<port id="0" precision="FP32">
					<dim>1</dim>
					<dim>128</dim>
					<dim>64</dim>
					<dim>112</dim>
				</port>
			</input>
			<output>
				<port id="1" precision="FP32" names="418">
					<dim>1</dim>
					<dim>128</dim>
					<dim>64</dim>
					<dim>112</dim>
				</port>
			</output>
		</layer>
		<layer id="33" name="650" type="Const" version="opset1">
			<data element_type="f32" shape="128, 128, 1, 1" offset="54284" size="65536"/>
			<rt_info>
				<attribute name="fused_names" version="0" value="650"/>
			</rt_info>
			<output>
				<port id="0" precision="FP32" names="650">
					<dim>128</dim>
					<dim>128</dim>
					<dim>1</dim>
					<dim>1</dim>
				</port>
			</output>
		</layer>
		<layer id="34" name="Convolution_672" type="Convolution" version="opset1">
			<data strides="1, 1" dilations="1, 1" pads_begin="0, 0" pads_end="0, 0" auto_pad="explicit"/>
			<rt_info>
				<attribute name="fused_names" version="0" value="Convolution_672"/>
			</rt_info>
			<input>
				<port id="0" precision="FP32">
					<dim>1</dim>
					<dim>128</dim>
					<dim>64</dim>
					<dim>112</dim>
				</port>
				<port id="1" precision="FP32">
					<dim>128</dim>
					<dim>128</dim>
					<dim>1</dim>
					<dim>1</dim>
				</port>
			</input>
			<output>
				<port id="2" precision="FP32">
					<dim>1</dim>
					<dim>128</dim>
					<dim>64</dim>
					<dim>112</dim>
				</port>
			</output>
		</layer>
		<layer id="35" name="Reshape_692" type="Const" version="opset1">
			<data element_type="f32" shape="1, 128, 1, 1" offset="119820" size="512"/>
			<output>
				<port id="0" precision="FP32">
					<dim>1</dim>
					<dim>128</dim>
					<dim>1</dim>
					<dim>1</dim>
				</port>
			</output>
		</layer>
		<layer id="36" name="649" type="Add" version="opset1">
			<data auto_broadcast="numpy"/>
			<rt_info>
				<attribute name="fused_names" version="0" value="649, Concat_691, Reshape_692"/>
			</rt_info>
			<input>
				<port id="0" precision="FP32">
					<dim>1</dim>
					<dim>128</dim>
					<dim>64</dim>
					<dim>112</dim>
				</port>
				<port id="1" precision="FP32">
					<dim>1</dim>
					<dim>128</dim>
					<dim>1</dim>
					<dim>1</dim>
				</port>
			</input>
			<output>
				<port id="2" precision="FP32" names="649">
					<dim>1</dim>
					<dim>128</dim>
					<dim>64</dim>
					<dim>112</dim>
				</port>
			</output>
		</layer>
		<layer id="37" name="421" type="ReLU" version="opset1">
			<rt_info>
				<attribute name="fused_names" version="0" value="421"/>
			</rt_info>
			<input>
				<port id="0" precision="FP32">
					<dim>1</dim>
					<dim>128</dim>
					<dim>64</dim>
					<dim>112</dim>
				</port>
			</input>
			<output>
				<port id="1" precision="FP32" names="421">
					<dim>1</dim>
					<dim>128</dim>
					<dim>64</dim>
					<dim>112</dim>
				</port>
			</output>
		</layer>
		<layer id="38" name="Reshape_728" type="Const" version="opset1">
			<data element_type="f32" shape="128, 1, 1, 3, 3" offset="120332" size="4608"/>
			<output>
				<port id="0" precision="FP32">
					<dim>128</dim>
					<dim>1</dim>
					<dim>1</dim>
					<dim>3</dim>
					<dim>3</dim>
				</port>
			</output>
		</layer>
		<layer id="39" name="GroupConvolution_794" type="GroupConvolution" version="opset1">
			<data strides="2, 2" pads_begin="1, 1" pads_end="1, 1" dilations="1, 1" auto_pad="explicit"/>
			<rt_info>
				<attribute name="fused_names" version="0" value="GroupConvolution_794, Reshape_728"/>
			</rt_info>
			<input>
				<port id="0" precision="FP32">
					<dim>1</dim>
					<dim>128</dim>
					<dim>64</dim>
					<dim>112</dim>
				</port>
				<port id="1" precision="FP32">
					<dim>128</dim>
					<dim>1</dim>
					<dim>1</dim>
					<dim>3</dim>
					<dim>3</dim>
				</port>
			</input>
			<output>
				<port id="2" precision="FP32">
					<dim>1</dim>
					<dim>128</dim>
					<dim>32</dim>
					<dim>56</dim>
				</port>
			</output>
		</layer>
		<layer id="40" name="Reshape_814" type="Const" version="opset1">
			<data element_type="f32" shape="1, 128, 1, 1" offset="124940" size="512"/>
			<output>
				<port id="0" precision="FP32">
					<dim>1</dim>
					<dim>128</dim>
					<dim>1</dim>
					<dim>1</dim>
				</port>
			</output>
		</layer>
		<layer id="41" name="652" type="Add" version="opset1">
			<data auto_broadcast="numpy"/>
			<rt_info>
				<attribute name="fused_names" version="0" value="652, Concat_813, Reshape_814"/>
			</rt_info>
			<input>
				<port id="0" precision="FP32">
					<dim>1</dim>
					<dim>128</dim>
					<dim>32</dim>
					<dim>56</dim>
				</port>
				<port id="1" precision="FP32">
					<dim>1</dim>
					<dim>128</dim>
					<dim>1</dim>
					<dim>1</dim>
				</port>
			</input>
			<output>
				<port id="2" precision="FP32" names="652">
					<dim>1</dim>
					<dim>128</dim>
					<dim>32</dim>
					<dim>56</dim>
				</port>
			</output>
		</layer>
		<layer id="42" name="424" type="ReLU" version="opset1">
			<rt_info>
				<attribute name="fused_names" version="0" value="424"/>
			</rt_info>
			<input>
				<port id="0" precision="FP32">
					<dim>1</dim>
					<dim>128</dim>
					<dim>32</dim>
					<dim>56</dim>
				</port>
			</input>
			<output>
				<port id="1" precision="FP32" names="424">
					<dim>1</dim>
					<dim>128</dim>
					<dim>32</dim>
					<dim>56</dim>
				</port>
			</output>
		</layer>
		<layer id="43" name="656" type="Const" version="opset1">
			<data element_type="f32" shape="256, 128, 1, 1" offset="125452" size="131072"/>
			<rt_info>
				<attribute name="fused_names" version="0" value="656"/>
			</rt_info>
			<output>
				<port id="0" precision="FP32" names="656">
					<dim>256</dim>
					<dim>128</dim>
					<dim>1</dim>
					<dim>1</dim>
				</port>
			</output>
		</layer>
		<layer id="44" name="Convolution_843" type="Convolution" version="opset1">
			<data strides="1, 1" dilations="1, 1" pads_begin="0, 0" pads_end="0, 0" auto_pad="explicit"/>
			<rt_info>
				<attribute name="fused_names" version="0" value="Convolution_843"/>
			</rt_info>
			<input>
				<port id="0" precision="FP32">
					<dim>1</dim>
					<dim>128</dim>
					<dim>32</dim>
					<dim>56</dim>
				</port>
				<port id="1" precision="FP32">
					<dim>256</dim>
					<dim>128</dim>
					<dim>1</dim>
					<dim>1</dim>
				</port>
			</input>
			<output>
				<port id="2" precision="FP32">
					<dim>1</dim>
					<dim>256</dim>
					<dim>32</dim>
					<dim>56</dim>
				</port>
			</output>
		</layer>
		<layer id="45" name="Reshape_863" type="Const" version="opset1">
			<data element_type="f32" shape="1, 256, 1, 1" offset="256524" size="1024"/>
			<output>
				<port id="0" precision="FP32">
					<dim>1</dim>
					<dim>256</dim>
					<dim>1</dim>
					<dim>1</dim>
				</port>
			</output>
		</layer>
		<layer id="46" name="655" type="Add" version="opset1">
			<data auto_broadcast="numpy"/>
			<rt_info>
				<attribute name="fused_names" version="0" value="655, Concat_862, Reshape_863"/>
			</rt_info>
			<input>
				<port id="0" precision="FP32">
					<dim>1</dim>
					<dim>256</dim>
					<dim>32</dim>
					<dim>56</dim>
				</port>
				<port id="1" precision="FP32">
					<dim>1</dim>
					<dim>256</dim>
					<dim>1</dim>
					<dim>1</dim>
				</port>
			</input>
			<output>
				<port id="2" precision="FP32" names="655">
					<dim>1</dim>
					<dim>256</dim>
					<dim>32</dim>
					<dim>56</dim>
				</port>
			</output>
		</layer>
		<layer id="47" name="427" type="ReLU" version="opset1">
			<rt_info>
				<attribute name="fused_names" version="0" value="427"/>
			</rt_info>
			<input>
				<port id="0" precision="FP32">
					<dim>1</dim>
					<dim>256</dim>
					<dim>32</dim>
					<dim>56</dim>
				</port>
			</input>
			<output>
				<port id="1" precision="FP32" names="427">
					<dim>1</dim>
					<dim>256</dim>
					<dim>32</dim>
					<dim>56</dim>
				</port>
			</output>
		</layer>
		<layer id="48" name="Reshape_899" type="Const" version="opset1">
			<data element_type="f32" shape="256, 1, 1, 3, 3" offset="257548" size="9216"/>
			<output>
				<port id="0" precision="FP32">
					<dim>256</dim>
					<dim>1</dim>
					<dim>1</dim>
					<dim>3</dim>
					<dim>3</dim>
				</port>
			</output>
		</layer>
		<layer id="49" name="GroupConvolution_965" type="GroupConvolution" version="opset1">
			<data strides="1, 1" pads_begin="1, 1" pads_end="1, 1" dilations="1, 1" auto_pad="explicit"/>
			<rt_info>
				<attribute name="fused_names" version="0" value="GroupConvolution_965, Reshape_899"/>
			</rt_info>
			<input>
				<port id="0" precision="FP32">
					<dim>1</dim>
					<dim>256</dim>
					<dim>32</dim>
					<dim>56</dim>
				</port>
				<port id="1" precision="FP32">
					<dim>256</dim>
					<dim>1</dim>
					<dim>1</dim>
					<dim>3</dim>
					<dim>3</dim>
				</port>
			</input>
			<output>
				<port id="2" precision="FP32">
					<dim>1</dim>
					<dim>256</dim>
					<dim>32</dim>
					<dim>56</dim>
				</port>
			</output>
		</layer>
		<layer id="50" name="Reshape_985" type="Const" version="opset1">
			<data element_type="f32" shape="1, 256, 1, 1" offset="266764" size="1024"/>
			<output>
				<port id="0" precision="FP32">
					<dim>1</dim>
					<dim>256</dim>
					<dim>1</dim>
					<dim>1</dim>
				</port>
			</output>
		</layer>
		<layer id="51" name="658" type="Add" version="opset1">
			<data auto_broadcast="numpy"/>
			<rt_info>
				<attribute name="fused_names" version="0" value="658, Concat_984, Reshape_985"/>
			</rt_info>
			<input>
				<port id="0" precision="FP32">
					<dim>1</dim>
					<dim>256</dim>
					<dim>32</dim>
					<dim>56</dim>
				</port>
				<port id="1" precision="FP32">
					<dim>1</dim>
					<dim>256</dim>
					<dim>1</dim>
					<dim>1</dim>
				</port>
			</input>
			<output>
				<port id="2" precision="FP32" names="658">
					<dim>1</dim>
					<dim>256</dim>
					<dim>32</dim>
					<dim>56</dim>
				</port>
			</output>
		</layer>
		<layer id="52" name="430" type="ReLU" version="opset1">
			<rt_info>
				<attribute name="fused_names" version="0" value="430"/>
			</rt_info>
			<input>
				<port id="0" precision="FP32">
					<dim>1</dim>
					<dim>256</dim>
					<dim>32</dim>
					<dim>56</dim>
				</port>
			</input>
			<output>
				<port id="1" precision="FP32" names="430">
					<dim>1</dim>
					<dim>256</dim>
					<dim>32</dim>
					<dim>56</dim>
				</port>
			</output>
		</layer>
		<layer id="53" name="662" type="Const" version="opset1">
			<data element_type="f32" shape="256, 256, 1, 1" offset="267788" size="262144"/>
			<rt_info>
				<attribute name="fused_names" version="0" value="662"/>
			</rt_info>
			<output>
				<port id="0" precision="FP32" names="662">
					<dim>256</dim>
					<dim>256</dim>
					<dim>1</dim>
					<dim>1</dim>
				</port>
			</output>
		</layer>
		<layer id="54" name="Convolution_1014" type="Convolution" version="opset1">
			<data strides="1, 1" dilations="1, 1" pads_begin="0, 0" pads_end="0, 0" auto_pad="explicit"/>
			<rt_info>
				<attribute name="fused_names" version="0" value="Convolution_1014"/>
			</rt_info>
			<input>
				<port id="0" precision="FP32">
					<dim>1</dim>
					<dim>256</dim>
					<dim>32</dim>
					<dim>56</dim>
				</port>
				<port id="1" precision="FP32">
					<dim>256</dim>
					<dim>256</dim>
					<dim>1</dim>
					<dim>1</dim>
				</port>
			</input>
			<output>
				<port id="2" precision="FP32">
					<dim>1</dim>
					<dim>256</dim>
					<dim>32</dim>
					<dim>56</dim>
				</port>
			</output>
		</layer>
		<layer id="55" name="Reshape_1034" type="Const" version="opset1">
			<data element_type="f32" shape="1, 256, 1, 1" offset="529932" size="1024"/>
			<output>
				<port id="0" precision="FP32">
					<dim>1</dim>
					<dim>256</dim>
					<dim>1</dim>
					<dim>1</dim>
				</port>
			</output>
		</layer>
		<layer id="56" name="661" type="Add" version="opset1">
			<data auto_broadcast="numpy"/>
			<rt_info>
				<attribute name="fused_names" version="0" value="661, Concat_1033, Reshape_1034"/>
			</rt_info>
			<input>
				<port id="0" precision="FP32">
					<dim>1</dim>
					<dim>256</dim>
					<dim>32</dim>
					<dim>56</dim>
				</port>
				<port id="1" precision="FP32">
					<dim>1</dim>
					<dim>256</dim>
					<dim>1</dim>
					<dim>1</dim>
				</port>
			</input>
			<output>
				<port id="2" precision="FP32" names="661">
					<dim>1</dim>
					<dim>256</dim>
					<dim>32</dim>
					<dim>56</dim>
				</port>
			</output>
		</layer>
		<layer id="57" name="433" type="ReLU" version="opset1">
			<rt_info>
				<attribute name="fused_names" version="0" value="433"/>
			</rt_info>
			<input>
				<port id="0" precision="FP32">
					<dim>1</dim>
					<dim>256</dim>
					<dim>32</dim>
					<dim>56</dim>
				</port>
			</input>
			<output>
				<port id="1" precision="FP32" names="433">
					<dim>1</dim>
					<dim>256</dim>
					<dim>32</dim>
					<dim>56</dim>
				</port>
			</output>
		</layer>
		<layer id="58" name="Reshape_1070" type="Const" version="opset1">
			<data element_type="f32" shape="256, 1, 1, 3, 3" offset="530956" size="9216"/>
			<output>
				<port id="0" precision="FP32">
					<dim>256</dim>
					<dim>1</dim>
					<dim>1</dim>
					<dim>3</dim>
					<dim>3</dim>
				</port>
			</output>
		</layer>
		<layer id="59" name="GroupConvolution_1136" type="GroupConvolution" version="opset1">
			<data strides="1, 1" pads_begin="1, 1" pads_end="1, 1" dilations="1, 1" auto_pad="explicit"/>
			<rt_info>
				<attribute name="fused_names" version="0" value="GroupConvolution_1136, Reshape_1070"/>
			</rt_info>
			<input>
				<port id="0" precision="FP32">
					<dim>1</dim>
					<dim>256</dim>
					<dim>32</dim>
					<dim>56</dim>
				</port>
				<port id="1" precision="FP32">
					<dim>256</dim>
					<dim>1</dim>
					<dim>1</dim>
					<dim>3</dim>
					<dim>3</dim>
				</port>
			</input>
			<output>
				<port id="2" precision="FP32">
					<dim>1</dim>
					<dim>256</dim>
					<dim>32</dim>
					<dim>56</dim>
				</port>
			</output>
		</layer>
		<layer id="60" name="Reshape_1156" type="Const" version="opset1">
			<data element_type="f32" shape="1, 256, 1, 1" offset="540172" size="1024"/>
			<output>
				<port id="0" precision="FP32">
					<dim>1</dim>
					<dim>256</dim>
					<dim>1</dim>
					<dim>1</dim>
				</port>
			</output>
		</layer>
		<layer id="61" name="664" type="Add" version="opset1">
			<data auto_broadcast="numpy"/>
			<rt_info>
				<attribute name="fused_names" version="0" value="664, Concat_1155, Reshape_1156"/>
			</rt_info>
			<input>
				<port id="0" precision="FP32">
					<dim>1</dim>
					<dim>256</dim>
					<dim>32</dim>
					<dim>56</dim>
				</port>
				<port id="1" precision="FP32">
					<dim>1</dim>
					<dim>256</dim>
					<dim>1</dim>
					<dim>1</dim>
				</port>
			</input>
			<output>
				<port id="2" precision="FP32" names="664">
					<dim>1</dim>
					<dim>256</dim>
					<dim>32</dim>
					<dim>56</dim>
				</port>
			</output>
		</layer>
		<layer id="62" name="436" type="ReLU" version="opset1">
			<rt_info>
				<attribute name="fused_names" version="0" value="436"/>
			</rt_info>
			<input>
				<port id="0" precision="FP32">
					<dim>1</dim>
					<dim>256</dim>
					<dim>32</dim>
					<dim>56</dim>
				</port>
			</input>
			<output>
				<port id="1" precision="FP32" names="436">
					<dim>1</dim>
					<dim>256</dim>
					<dim>32</dim>
					<dim>56</dim>
				</port>
			</output>
		</layer>
		<layer id="63" name="668" type="Const" version="opset1">
			<data element_type="f32" shape="512, 256, 1, 1" offset="541196" size="524288"/>
			<rt_info>
				<attribute name="fused_names" version="0" value="668"/>
			</rt_info>
			<output>
				<port id="0" precision="FP32" names="668">
					<dim>512</dim>
					<dim>256</dim>
					<dim>1</dim>
					<dim>1</dim>
				</port>
			</output>
		</layer>
		<layer id="64" name="Convolution_1185" type="Convolution" version="opset1">
			<data strides="1, 1" dilations="1, 1" pads_begin="0, 0" pads_end="0, 0" auto_pad="explicit"/>
			<rt_info>
				<attribute name="fused_names" version="0" value="Convolution_1185"/>
			</rt_info>
			<input>
				<port id="0" precision="FP32">
					<dim>1</dim>
					<dim>256</dim>
					<dim>32</dim>
					<dim>56</dim>
				</port>
				<port id="1" precision="FP32">
					<dim>512</dim>
					<dim>256</dim>
					<dim>1</dim>
					<dim>1</dim>
				</port>
			</input>
			<output>
				<port id="2" precision="FP32">
					<dim>1</dim>
					<dim>512</dim>
					<dim>32</dim>
					<dim>56</dim>
				</port>
			</output>
		</layer>
		<layer id="65" name="Reshape_1205" type="Const" version="opset1">
			<data element_type="f32" shape="1, 512, 1, 1" offset="1065484" size="2048"/>
			<output>
				<port id="0" precision="FP32">
					<dim>1</dim>
					<dim>512</dim>
					<dim>1</dim>
					<dim>1</dim>
				</port>
			</output>
		</layer>
		<layer id="66" name="667" type="Add" version="opset1">
			<data auto_broadcast="numpy"/>
			<rt_info>
				<attribute name="fused_names" version="0" value="667, Concat_1204, Reshape_1205"/>
			</rt_info>
			<input>
				<port id="0" precision="FP32">
					<dim>1</dim>
					<dim>512</dim>
					<dim>32</dim>
					<dim>56</dim>
				</port>
				<port id="1" precision="FP32">
					<dim>1</dim>
					<dim>512</dim>
					<dim>1</dim>
					<dim>1</dim>
				</port>
			</input>
			<output>
				<port id="2" precision="FP32" names="667">
					<dim>1</dim>
					<dim>512</dim>
					<dim>32</dim>
					<dim>56</dim>
				</port>
			</output>
		</layer>
		<layer id="67" name="439" type="ReLU" version="opset1">
			<rt_info>
				<attribute name="fused_names" version="0" value="439"/>
			</rt_info>
			<input>
				<port id="0" precision="FP32">
					<dim>1</dim>
					<dim>512</dim>
					<dim>32</dim>
					<dim>56</dim>
				</port>
			</input>
			<output>
				<port id="1" precision="FP32" names="439">
					<dim>1</dim>
					<dim>512</dim>
					<dim>32</dim>
					<dim>56</dim>
				</port>
			</output>
		</layer>
		<layer id="68" name="Reshape_1241" type="Const" version="opset1">
			<data element_type="f32" shape="512, 1, 1, 3, 3" offset="1067532" size="18432"/>
			<output>
				<port id="0" precision="FP32">
					<dim>512</dim>
					<dim>1</dim>
					<dim>1</dim>
					<dim>3</dim>
					<dim>3</dim>
				</port>
			</output>
		</layer>
		<layer id="69" name="GroupConvolution_1307" type="GroupConvolution" version="opset1">
			<data strides="1, 1" pads_begin="2, 2" pads_end="2, 2" dilations="2, 2" auto_pad="explicit"/>
			<rt_info>
				<attribute name="fused_names" version="0" value="GroupConvolution_1307, Reshape_1241"/>
			</rt_info>
			<input>
				<port id="0" precision="FP32">
					<dim>1</dim>
					<dim>512</dim>
					<dim>32</dim>
					<dim>56</dim>
				</port>
				<port id="1" precision="FP32">
					<dim>512</dim>
					<dim>1</dim>
					<dim>1</dim>
					<dim>3</dim>
					<dim>3</dim>
				</port>
			</input>
			<output>
				<port id="2" precision="FP32">
					<dim>1</dim>
					<dim>512</dim>
					<dim>32</dim>
					<dim>56</dim>
				</port>
			</output>
		</layer>
		<layer id="70" name="Reshape_1327" type="Const" version="opset1">
			<data element_type="f32" shape="1, 512, 1, 1" offset="1085964" size="2048"/>
			<output>
				<port id="0" precision="FP32">
					<dim>1</dim>
					<dim>512</dim>
					<dim>1</dim>
					<dim>1</dim>
				</port>
			</output>
		</layer>
		<layer id="71" name="670" type="Add" version="opset1">
			<data auto_broadcast="numpy"/>
			<rt_info>
				<attribute name="fused_names" version="0" value="670, Concat_1326, Reshape_1327"/>
			</rt_info>
			<input>
				<port id="0" precision="FP32">
					<dim>1</dim>
					<dim>512</dim>
					<dim>32</dim>
					<dim>56</dim>
				</port>
				<port id="1" precision="FP32">
					<dim>1</dim>
					<dim>512</dim>
					<dim>1</dim>
					<dim>1</dim>
				</port>
			</input>
			<output>
				<port id="2" precision="FP32" names="670">
					<dim>1</dim>
					<dim>512</dim>
					<dim>32</dim>
					<dim>56</dim>
				</port>
			</output>
		</layer>
		<layer id="72" name="442" type="ReLU" version="opset1">
			<rt_info>
				<attribute name="fused_names" version="0" value="442"/>
			</rt_info>
			<input>
				<port id="0" precision="FP32">
					<dim>1</dim>
					<dim>512</dim>
					<dim>32</dim>
					<dim>56</dim>
				</port>
			</input>
			<output>
				<port id="1" precision="FP32" names="442">
					<dim>1</dim>
					<dim>512</dim>
					<dim>32</dim>
					<dim>56</dim>
				</port>
			</output>
		</layer>
		<layer id="73" name="674" type="Const" version="opset1">
			<data element_type="f32" shape="512, 512, 1, 1" offset="1088012" size="1048576"/>
			<rt_info>
				<attribute name="fused_names" version="0" value="674"/>
			</rt_info>
			<output>
				<port id="0" precision="FP32" names="674">
					<dim>512</dim>
					<dim>512</dim>
					<dim>1</dim>
					<dim>1</dim>
				</port>
			</output>
		</layer>
		<layer id="74" name="Convolution_1356" type="Convolution" version="opset1">
			<data strides="1, 1" dilations="1, 1" pads_begin="0, 0" pads_end="0, 0" auto_pad="explicit"/>
			<rt_info>
				<attribute name="fused_names" version="0" value="Convolution_1356"/>
			</rt_info>
			<input>
				<port id="0" precision="FP32">
					<dim>1</dim>
					<dim>512</dim>
					<dim>32</dim>
					<dim>56</dim>
				</port>
				<port id="1" precision="FP32">
					<dim>512</dim>
					<dim>512</dim>
					<dim>1</dim>
					<dim>1</dim>
				</port>
			</input>
			<output>
				<port id="2" precision="FP32">
					<dim>1</dim>
					<dim>512</dim>
					<dim>32</dim>
					<dim>56</dim>
				</port>
			</output>
		</layer>
		<layer id="75" name="Reshape_1376" type="Const" version="opset1">
			<data element_type="f32" shape="1, 512, 1, 1" offset="2136588" size="2048"/>
			<output>
				<port id="0" precision="FP32">
					<dim>1</dim>
					<dim>512</dim>
					<dim>1</dim>
					<dim>1</dim>
				</port>
			</output>
		</layer>
		<layer id="76" name="673" type="Add" version="opset1">
			<data auto_broadcast="numpy"/>
			<rt_info>
				<attribute name="fused_names" version="0" value="673, Concat_1375, Reshape_1376"/>
			</rt_info>
			<input>
				<port id="0" precision="FP32">
					<dim>1</dim>
					<dim>512</dim>
					<dim>32</dim>
					<dim>56</dim>
				</port>
				<port id="1" precision="FP32">
					<dim>1</dim>
					<dim>512</dim>
					<dim>1</dim>
					<dim>1</dim>
				</port>
			</input>
			<output>
				<port id="2" precision="FP32" names="673">
					<dim>1</dim>
					<dim>512</dim>
					<dim>32</dim>
					<dim>56</dim>
				</port>
			</output>
		</layer>
		<layer id="77" name="445" type="ReLU" version="opset1">
			<rt_info>
				<attribute name="fused_names" version="0" value="445"/>
			</rt_info>
			<input>
				<port id="0" precision="FP32">
					<dim>1</dim>
					<dim>512</dim>
					<dim>32</dim>
					<dim>56</dim>
				</port>
			</input>
			<output>
				<port id="1" precision="FP32" names="445">
					<dim>1</dim>
					<dim>512</dim>
					<dim>32</dim>
					<dim>56</dim>
				</port>
			</output>
		</layer>
		<layer id="78" name="Reshape_1412" type="Const" version="opset1">
			<data element_type="f32" shape="512, 1, 1, 3, 3" offset="2138636" size="18432"/>
			<output>
				<port id="0" precision="FP32">
					<dim>512</dim>
					<dim>1</dim>
					<dim>1</dim>
					<dim>3</dim>
					<dim>3</dim>
				</port>
			</output>
		</layer>
		<layer id="79" name="GroupConvolution_1478" type="GroupConvolution" version="opset1">
			<data strides="1, 1" pads_begin="1, 1" pads_end="1, 1" dilations="1, 1" auto_pad="explicit"/>
			<rt_info>
				<attribute name="fused_names" version="0" value="GroupConvolution_1478, Reshape_1412"/>
			</rt_info>
			<input>
				<port id="0" precision="FP32">
					<dim>1</dim>
					<dim>512</dim>
					<dim>32</dim>
					<dim>56</dim>
				</port>
				<port id="1" precision="FP32">
					<dim>512</dim>
					<dim>1</dim>
					<dim>1</dim>
					<dim>3</dim>
					<dim>3</dim>
				</port>
			</input>
			<output>
				<port id="2" precision="FP32">
					<dim>1</dim>
					<dim>512</dim>
					<dim>32</dim>
					<dim>56</dim>
				</port>
			</output>
		</layer>
		<layer id="80" name="Reshape_1498" type="Const" version="opset1">
			<data element_type="f32" shape="1, 512, 1, 1" offset="2157068" size="2048"/>
			<output>
				<port id="0" precision="FP32">
					<dim>1</dim>
					<dim>512</dim>
					<dim>1</dim>
					<dim>1</dim>
				</port>
			</output>
		</layer>
		<layer id="81" name="676" type="Add" version="opset1">
			<data auto_broadcast="numpy"/>
			<rt_info>
				<attribute name="fused_names" version="0" value="676, Concat_1497, Reshape_1498"/>
			</rt_info>
			<input>
				<port id="0" precision="FP32">
					<dim>1</dim>
					<dim>512</dim>
					<dim>32</dim>
					<dim>56</dim>
				</port>
				<port id="1" precision="FP32">
					<dim>1</dim>
					<dim>512</dim>
					<dim>1</dim>
					<dim>1</dim>
				</port>
			</input>
			<output>
				<port id="2" precision="FP32" names="676">
					<dim>1</dim>
					<dim>512</dim>
					<dim>32</dim>
					<dim>56</dim>
				</port>
			</output>
		</layer>
		<layer id="82" name="448" type="ReLU" version="opset1">
			<rt_info>
				<attribute name="fused_names" version="0" value="448"/>
			</rt_info>
			<input>
				<port id="0" precision="FP32">
					<dim>1</dim>
					<dim>512</dim>
					<dim>32</dim>
					<dim>56</dim>
				</port>
			</input>
			<output>
				<port id="1" precision="FP32" names="448">
					<dim>1</dim>
					<dim>512</dim>
					<dim>32</dim>
					<dim>56</dim>
				</port>
			</output>
		</layer>
		<layer id="83" name="680" type="Const" version="opset1">
			<data element_type="f32" shape="512, 512, 1, 1" offset="2159116" size="1048576"/>
			<rt_info>
				<attribute name="fused_names" version="0" value="680"/>
			</rt_info>
			<output>
				<port id="0" precision="FP32" names="680">
					<dim>512</dim>
					<dim>512</dim>
					<dim>1</dim>
					<dim>1</dim>
				</port>
			</output>
		</layer>
		<layer id="84" name="Convolution_1527" type="Convolution" version="opset1">
			<data strides="1, 1" dilations="1, 1" pads_begin="0, 0" pads_end="0, 0" auto_pad="explicit"/>
			<rt_info>
				<attribute name="fused_names" version="0" value="Convolution_1527"/>
			</rt_info>
			<input>
				<port id="0" precision="FP32">
					<dim>1</dim>
					<dim>512</dim>
					<dim>32</dim>
					<dim>56</dim>
				</port>
				<port id="1" precision="FP32">
					<dim>512</dim>
					<dim>512</dim>
					<dim>1</dim>
					<dim>1</dim>
				</port>
			</input>
			<output>
				<port id="2" precision="FP32">
					<dim>1</dim>
					<dim>512</dim>
					<dim>32</dim>
					<dim>56</dim>
				</port>
			</output>
		</layer>
		<layer id="85" name="Reshape_1547" type="Const" version="opset1">
			<data element_type="f32" shape="1, 512, 1, 1" offset="3207692" size="2048"/>
			<output>
				<port id="0" precision="FP32">
					<dim>1</dim>
					<dim>512</dim>
					<dim>1</dim>
					<dim>1</dim>
				</port>
			</output>
		</layer>
		<layer id="86" name="679" type="Add" version="opset1">
			<data auto_broadcast="numpy"/>
			<rt_info>
				<attribute name="fused_names" version="0" value="679, Concat_1546, Reshape_1547"/>
			</rt_info>
			<input>
				<port id="0" precision="FP32">
					<dim>1</dim>
					<dim>512</dim>
					<dim>32</dim>
					<dim>56</dim>
				</port>
				<port id="1" precision="FP32">
					<dim>1</dim>
					<dim>512</dim>
					<dim>1</dim>
					<dim>1</dim>
				</port>
			</input>
			<output>
				<port id="2" precision="FP32" names="679">
					<dim>1</dim>
					<dim>512</dim>
					<dim>32</dim>
					<dim>56</dim>
				</port>
			</output>
		</layer>
		<layer id="87" name="451" type="ReLU" version="opset1">
			<rt_info>
				<attribute name="fused_names" version="0" value="451"/>
			</rt_info>
			<input>
				<port id="0" precision="FP32">
					<dim>1</dim>
					<dim>512</dim>
					<dim>32</dim>
					<dim>56</dim>
				</port>
			</input>
			<output>
				<port id="1" precision="FP32" names="451">
					<dim>1</dim>
					<dim>512</dim>
					<dim>32</dim>
					<dim>56</dim>
				</port>
			</output>
		</layer>
		<layer id="88" name="Reshape_1583" type="Const" version="opset1">
			<data element_type="f32" shape="512, 1, 1, 3, 3" offset="3209740" size="18432"/>
			<output>
				<port id="0" precision="FP32">
					<dim>512</dim>
					<dim>1</dim>
					<dim>1</dim>
					<dim>3</dim>
					<dim>3</dim>
				</port>
			</output>
		</layer>
		<layer id="89" name="GroupConvolution_1649" type="GroupConvolution" version="opset1">
			<data strides="1, 1" pads_begin="1, 1" pads_end="1, 1" dilations="1, 1" auto_pad="explicit"/>
			<rt_info>
				<attribute name="fused_names" version="0" value="GroupConvolution_1649, Reshape_1583"/>
			</rt_info>
			<input>
				<port id="0" precision="FP32">
					<dim>1</dim>
					<dim>512</dim>
					<dim>32</dim>
					<dim>56</dim>
				</port>
				<port id="1" precision="FP32">
					<dim>512</dim>
					<dim>1</dim>
					<dim>1</dim>
					<dim>3</dim>
					<dim>3</dim>
				</port>
			</input>
			<output>
				<port id="2" precision="FP32">
					<dim>1</dim>
					<dim>512</dim>
					<dim>32</dim>
					<dim>56</dim>
				</port>
			</output>
		</layer>
		<layer id="90" name="Reshape_1669" type="Const" version="opset1">
			<data element_type="f32" shape="1, 512, 1, 1" offset="3228172" size="2048"/>
			<output>
				<port id="0" precision="FP32">
					<dim>1</dim>
					<dim>512</dim>
					<dim>1</dim>
					<dim>1</dim>
				</port>
			</output>
		</layer>
		<layer id="91" name="682" type="Add" version="opset1">
			<data auto_broadcast="numpy"/>
			<rt_info>
				<attribute name="fused_names" version="0" value="682, Concat_1668, Reshape_1669"/>
			</rt_info>
			<input>
				<port id="0" precision="FP32">
					<dim>1</dim>
					<dim>512</dim>
					<dim>32</dim>
					<dim>56</dim>
				</port>
				<port id="1" precision="FP32">
					<dim>1</dim>
					<dim>512</dim>
					<dim>1</dim>
					<dim>1</dim>
				</port>
			</input>
			<output>
				<port id="2" precision="FP32" names="682">
					<dim>1</dim>
					<dim>512</dim>
					<dim>32</dim>
					<dim>56</dim>
				</port>
			</output>
		</layer>
		<layer id="92" name="454" type="ReLU" version="opset1">
			<rt_info>
				<attribute name="fused_names" version="0" value="454"/>
			</rt_info>
			<input>
				<port id="0" precision="FP32">
					<dim>1</dim>
					<dim>512</dim>
					<dim>32</dim>
					<dim>56</dim>
				</port>
			</input>
			<output>
				<port id="1" precision="FP32" names="454">
					<dim>1</dim>
					<dim>512</dim>
					<dim>32</dim>
					<dim>56</dim>
				</port>
			</output>
		</layer>
		<layer id="93" name="686" type="Const" version="opset1">
			<data element_type="f32" shape="512, 512, 1, 1" offset="3230220" size="1048576"/>
			<rt_info>
				<attribute name="fused_names" version="0" value="686"/>
			</rt_info>
			<output>
				<port id="0" precision="FP32" names="686">
					<dim>512</dim>
					<dim>512</dim>
					<dim>1</dim>
					<dim>1</dim>
				</port>
			</output>
		</layer>
		<layer id="94" name="Convolution_1698" type="Convolution" version="opset1">
			<data strides="1, 1" dilations="1, 1" pads_begin="0, 0" pads_end="0, 0" auto_pad="explicit"/>
			<rt_info>
				<attribute name="fused_names" version="0" value="Convolution_1698"/>
			</rt_info>
			<input>
				<port id="0" precision="FP32">
					<dim>1</dim>
					<dim>512</dim>
					<dim>32</dim>
					<dim>56</dim>
				</port>
				<port id="1" precision="FP32">
					<dim>512</dim>
					<dim>512</dim>
					<dim>1</dim>
					<dim>1</dim>
				</port>
			</input>
			<output>
				<port id="2" precision="FP32">
					<dim>1</dim>
					<dim>512</dim>
					<dim>32</dim>
					<dim>56</dim>
				</port>
			</output>
		</layer>
		<layer id="95" name="Reshape_1718" type="Const" version="opset1">
			<data element_type="f32" shape="1, 512, 1, 1" offset="4278796" size="2048"/>
			<output>
				<port id="0" precision="FP32">
					<dim>1</dim>
					<dim>512</dim>
					<dim>1</dim>
					<dim>1</dim>
				</port>
			</output>
		</layer>
		<layer id="96" name="685" type="Add" version="opset1">
			<data auto_broadcast="numpy"/>
			<rt_info>
				<attribute name="fused_names" version="0" value="685, Concat_1717, Reshape_1718"/>
			</rt_info>
			<input>
				<port id="0" precision="FP32">
					<dim>1</dim>
					<dim>512</dim>
					<dim>32</dim>
					<dim>56</dim>
				</port>
				<port id="1" precision="FP32">
					<dim>1</dim>
					<dim>512</dim>
					<dim>1</dim>
					<dim>1</dim>
				</port>
			</input>
			<output>
				<port id="2" precision="FP32" names="685">
					<dim>1</dim>
					<dim>512</dim>
					<dim>32</dim>
					<dim>56</dim>
				</port>
			</output>
		</layer>
		<layer id="97" name="457" type="ReLU" version="opset1">
			<rt_info>
				<attribute name="fused_names" version="0" value="457"/>
			</rt_info>
			<input>
				<port id="0" precision="FP32">
					<dim>1</dim>
					<dim>512</dim>
					<dim>32</dim>
					<dim>56</dim>
				</port>
			</input>
			<output>
				<port id="1" precision="FP32" names="457">
					<dim>1</dim>
					<dim>512</dim>
					<dim>32</dim>
					<dim>56</dim>
				</port>
			</output>
		</layer>
		<layer id="98" name="Reshape_1754" type="Const" version="opset1">
			<data element_type="f32" shape="512, 1, 1, 3, 3" offset="4280844" size="18432"/>
			<output>
				<port id="0" precision="FP32">
					<dim>512</dim>
					<dim>1</dim>
					<dim>1</dim>
					<dim>3</dim>
					<dim>3</dim>
				</port>
			</output>
		</layer>
		<layer id="99" name="GroupConvolution_1820" type="GroupConvolution" version="opset1">
			<data strides="1, 1" pads_begin="1, 1" pads_end="1, 1" dilations="1, 1" auto_pad="explicit"/>
			<rt_info>
				<attribute name="fused_names" version="0" value="GroupConvolution_1820, Reshape_1754"/>
			</rt_info>
			<input>
				<port id="0" precision="FP32">
					<dim>1</dim>
					<dim>512</dim>
					<dim>32</dim>
					<dim>56</dim>
				</port>
				<port id="1" precision="FP32">
					<dim>512</dim>
					<dim>1</dim>
					<dim>1</dim>
					<dim>3</dim>
					<dim>3</dim>
				</port>
			</input>
			<output>
				<port id="2" precision="FP32">
					<dim>1</dim>
					<dim>512</dim>
					<dim>32</dim>
					<dim>56</dim>
				</port>
			</output>
		</layer>
		<layer id="100" name="Reshape_1840" type="Const" version="opset1">
			<data element_type="f32" shape="1, 512, 1, 1" offset="4299276" size="2048"/>
			<output>
				<port id="0" precision="FP32">
					<dim>1</dim>
					<dim>512</dim>
					<dim>1</dim>
					<dim>1</dim>
				</port>
			</output>
		</layer>
		<layer id="101" name="688" type="Add" version="opset1">
			<data auto_broadcast="numpy"/>
			<rt_info>
				<attribute name="fused_names" version="0" value="688, Concat_1839, Reshape_1840"/>
			</rt_info>
			<input>
				<port id="0" precision="FP32">
					<dim>1</dim>
					<dim>512</dim>
					<dim>32</dim>
					<dim>56</dim>
				</port>
				<port id="1" precision="FP32">
					<dim>1</dim>
					<dim>512</dim>
					<dim>1</dim>
					<dim>1</dim>
				</port>
			</input>
			<output>
				<port id="2" precision="FP32" names="688">
					<dim>1</dim>
					<dim>512</dim>
					<dim>32</dim>
					<dim>56</dim>
				</port>
			</output>
		</layer>
		<layer id="102" name="460" type="ReLU" version="opset1">
			<rt_info>
				<attribute name="fused_names" version="0" value="460"/>
			</rt_info>
			<input>
				<port id="0" precision="FP32">
					<dim>1</dim>
					<dim>512</dim>
					<dim>32</dim>
					<dim>56</dim>
				</port>
			</input>
			<output>
				<port id="1" precision="FP32" names="460">
					<dim>1</dim>
					<dim>512</dim>
					<dim>32</dim>
					<dim>56</dim>
				</port>
			</output>
		</layer>
		<layer id="103" name="692" type="Const" version="opset1">
			<data element_type="f32" shape="512, 512, 1, 1" offset="4301324" size="1048576"/>
			<rt_info>
				<attribute name="fused_names" version="0" value="692"/>
			</rt_info>
			<output>
				<port id="0" precision="FP32" names="692">
					<dim>512</dim>
					<dim>512</dim>
					<dim>1</dim>
					<dim>1</dim>
				</port>
			</output>
		</layer>
		<layer id="104" name="Convolution_1869" type="Convolution" version="opset1">
			<data strides="1, 1" dilations="1, 1" pads_begin="0, 0" pads_end="0, 0" auto_pad="explicit"/>
			<rt_info>
				<attribute name="fused_names" version="0" value="Convolution_1869"/>
			</rt_info>
			<input>
				<port id="0" precision="FP32">
					<dim>1</dim>
					<dim>512</dim>
					<dim>32</dim>
					<dim>56</dim>
				</port>
				<port id="1" precision="FP32">
					<dim>512</dim>
					<dim>512</dim>
					<dim>1</dim>
					<dim>1</dim>
				</port>
			</input>
			<output>
				<port id="2" precision="FP32">
					<dim>1</dim>
					<dim>512</dim>
					<dim>32</dim>
					<dim>56</dim>
				</port>
			</output>
		</layer>
		<layer id="105" name="Reshape_1889" type="Const" version="opset1">
			<data element_type="f32" shape="1, 512, 1, 1" offset="5349900" size="2048"/>
			<output>
				<port id="0" precision="FP32">
					<dim>1</dim>
					<dim>512</dim>
					<dim>1</dim>
					<dim>1</dim>
				</port>
			</output>
		</layer>
		<layer id="106" name="691" type="Add" version="opset1">
			<data auto_broadcast="numpy"/>
			<rt_info>
				<attribute name="fused_names" version="0" value="691, Concat_1888, Reshape_1889"/>
			</rt_info>
			<input>
				<port id="0" precision="FP32">
					<dim>1</dim>
					<dim>512</dim>
					<dim>32</dim>
					<dim>56</dim>
				</port>
				<port id="1" precision="FP32">
					<dim>1</dim>
					<dim>512</dim>
					<dim>1</dim>
					<dim>1</dim>
				</port>
			</input>
			<output>
				<port id="2" precision="FP32" names="691">
					<dim>1</dim>
					<dim>512</dim>
					<dim>32</dim>
					<dim>56</dim>
				</port>
			</output>
		</layer>
		<layer id="107" name="463" type="ReLU" version="opset1">
			<rt_info>
				<attribute name="fused_names" version="0" value="463"/>
			</rt_info>
			<input>
				<port id="0" precision="FP32">
					<dim>1</dim>
					<dim>512</dim>
					<dim>32</dim>
					<dim>56</dim>
				</port>
			</input>
			<output>
				<port id="1" precision="FP32" names="463">
					<dim>1</dim>
					<dim>512</dim>
					<dim>32</dim>
					<dim>56</dim>
				</port>
			</output>
		</layer>
		<layer id="108" name="Reshape_1925" type="Const" version="opset1">
			<data element_type="f32" shape="512, 1, 1, 3, 3" offset="5351948" size="18432"/>
			<output>
				<port id="0" precision="FP32">
					<dim>512</dim>
					<dim>1</dim>
					<dim>1</dim>
					<dim>3</dim>
					<dim>3</dim>
				</port>
			</output>
		</layer>
		<layer id="109" name="GroupConvolution_1991" type="GroupConvolution" version="opset1">
			<data strides="1, 1" pads_begin="1, 1" pads_end="1, 1" dilations="1, 1" auto_pad="explicit"/>
			<rt_info>
				<attribute name="fused_names" version="0" value="GroupConvolution_1991, Reshape_1925"/>
			</rt_info>
			<input>
				<port id="0" precision="FP32">
					<dim>1</dim>
					<dim>512</dim>
					<dim>32</dim>
					<dim>56</dim>
				</port>
				<port id="1" precision="FP32">
					<dim>512</dim>
					<dim>1</dim>
					<dim>1</dim>
					<dim>3</dim>
					<dim>3</dim>
				</port>
			</input>
			<output>
				<port id="2" precision="FP32">
					<dim>1</dim>
					<dim>512</dim>
					<dim>32</dim>
					<dim>56</dim>
				</port>
			</output>
		</layer>
		<layer id="110" name="Reshape_2011" type="Const" version="opset1">
			<data element_type="f32" shape="1, 512, 1, 1" offset="5370380" size="2048"/>
			<output>
				<port id="0" precision="FP32">
					<dim>1</dim>
					<dim>512</dim>
					<dim>1</dim>
					<dim>1</dim>
				</port>
			</output>
		</layer>
		<layer id="111" name="694" type="Add" version="opset1">
			<data auto_broadcast="numpy"/>
			<rt_info>
				<attribute name="fused_names" version="0" value="694, Concat_2010, Reshape_2011"/>
			</rt_info>
			<input>
				<port id="0" precision="FP32">
					<dim>1</dim>
					<dim>512</dim>
					<dim>32</dim>
					<dim>56</dim>
				</port>
				<port id="1" precision="FP32">
					<dim>1</dim>
					<dim>512</dim>
					<dim>1</dim>
					<dim>1</dim>
				</port>
			</input>
			<output>
				<port id="2" precision="FP32" names="694">
					<dim>1</dim>
					<dim>512</dim>
					<dim>32</dim>
					<dim>56</dim>
				</port>
			</output>
		</layer>
		<layer id="112" name="466" type="ReLU" version="opset1">
			<rt_info>
				<attribute name="fused_names" version="0" value="466"/>
			</rt_info>
			<input>
				<port id="0" precision="FP32">
					<dim>1</dim>
					<dim>512</dim>
					<dim>32</dim>
					<dim>56</dim>
				</port>
			</input>
			<output>
				<port id="1" precision="FP32" names="466">
					<dim>1</dim>
					<dim>512</dim>
					<dim>32</dim>
					<dim>56</dim>
				</port>
			</output>
		</layer>
		<layer id="113" name="698" type="Const" version="opset1">
			<data element_type="f32" shape="512, 512, 1, 1" offset="5372428" size="1048576"/>
			<rt_info>
				<attribute name="fused_names" version="0" value="698"/>
			</rt_info>
			<output>
				<port id="0" precision="FP32" names="698">
					<dim>512</dim>
					<dim>512</dim>
					<dim>1</dim>
					<dim>1</dim>
				</port>
			</output>
		</layer>
		<layer id="114" name="Convolution_2040" type="Convolution" version="opset1">
			<data strides="1, 1" dilations="1, 1" pads_begin="0, 0" pads_end="0, 0" auto_pad="explicit"/>
			<rt_info>
				<attribute name="fused_names" version="0" value="Convolution_2040"/>
			</rt_info>
			<input>
				<port id="0" precision="FP32">
					<dim>1</dim>
					<dim>512</dim>
					<dim>32</dim>
					<dim>56</dim>
				</port>
				<port id="1" precision="FP32">
					<dim>512</dim>
					<dim>512</dim>
					<dim>1</dim>
					<dim>1</dim>
				</port>
			</input>
			<output>
				<port id="2" precision="FP32">
					<dim>1</dim>
					<dim>512</dim>
					<dim>32</dim>
					<dim>56</dim>
				</port>
			</output>
		</layer>
		<layer id="115" name="Reshape_2060" type="Const" version="opset1">
			<data element_type="f32" shape="1, 512, 1, 1" offset="6421004" size="2048"/>
			<output>
				<port id="0" precision="FP32">
					<dim>1</dim>
					<dim>512</dim>
					<dim>1</dim>
					<dim>1</dim>
				</port>
			</output>
		</layer>
		<layer id="116" name="697" type="Add" version="opset1">
			<data auto_broadcast="numpy"/>
			<rt_info>
				<attribute name="fused_names" version="0" value="697, Concat_2059, Reshape_2060"/>
			</rt_info>
			<input>
				<port id="0" precision="FP32">
					<dim>1</dim>
					<dim>512</dim>
					<dim>32</dim>
					<dim>56</dim>
				</port>
				<port id="1" precision="FP32">
					<dim>1</dim>
					<dim>512</dim>
					<dim>1</dim>
					<dim>1</dim>
				</port>
			</input>
			<output>
				<port id="2" precision="FP32" names="697">
					<dim>1</dim>
					<dim>512</dim>
					<dim>32</dim>
					<dim>56</dim>
				</port>
			</output>
		</layer>
		<layer id="117" name="469" type="ReLU" version="opset1">
			<rt_info>
				<attribute name="fused_names" version="0" value="469"/>
			</rt_info>
			<input>
				<port id="0" precision="FP32">
					<dim>1</dim>
					<dim>512</dim>
					<dim>32</dim>
					<dim>56</dim>
				</port>
			</input>
			<output>
				<port id="1" precision="FP32" names="469">
					<dim>1</dim>
					<dim>512</dim>
					<dim>32</dim>
					<dim>56</dim>
				</port>
			</output>
		</layer>
		<layer id="118" name="cpm.align.0.weight" type="Const" version="opset1">
			<data element_type="f32" shape="128, 512, 1, 1" offset="6423052" size="262144"/>
			<rt_info>
				<attribute name="fused_names" version="0" value="cpm.align.0.weight"/>
			</rt_info>
			<output>
				<port id="0" precision="FP32" names="cpm.align.0.weight">
					<dim>128</dim>
					<dim>512</dim>
					<dim>1</dim>
					<dim>1</dim>
				</port>
			</output>
		</layer>
		<layer id="119" name="Convolution_2089" type="Convolution" version="opset1">
			<data strides="1, 1" dilations="1, 1" pads_begin="0, 0" pads_end="0, 0" auto_pad="explicit"/>
			<rt_info>
				<attribute name="fused_names" version="0" value="Convolution_2089"/>
			</rt_info>
			<input>
				<port id="0" precision="FP32">
					<dim>1</dim>
					<dim>512</dim>
					<dim>32</dim>
					<dim>56</dim>
				</port>
				<port id="1" precision="FP32">
					<dim>128</dim>
					<dim>512</dim>
					<dim>1</dim>
					<dim>1</dim>
				</port>
			</input>
			<output>
				<port id="2" precision="FP32">
					<dim>1</dim>
					<dim>128</dim>
					<dim>32</dim>
					<dim>56</dim>
				</port>
			</output>
		</layer>
		<layer id="120" name="Reshape_2109" type="Const" version="opset1">
			<data element_type="f32" shape="1, 128, 1, 1" offset="6685196" size="512"/>
			<output>
				<port id="0" precision="FP32">
					<dim>1</dim>
					<dim>128</dim>
					<dim>1</dim>
					<dim>1</dim>
				</port>
			</output>
		</layer>
		<layer id="121" name="470" type="Add" version="opset1">
			<data auto_broadcast="numpy"/>
			<rt_info>
				<attribute name="fused_names" version="0" value="470, Concat_2108, Reshape_2109"/>
			</rt_info>
			<input>
				<port id="0" precision="FP32">
					<dim>1</dim>
					<dim>128</dim>
					<dim>32</dim>
					<dim>56</dim>
				</port>
				<port id="1" precision="FP32">
					<dim>1</dim>
					<dim>128</dim>
					<dim>1</dim>
					<dim>1</dim>
				</port>
			</input>
			<output>
				<port id="2" precision="FP32" names="470">
					<dim>1</dim>
					<dim>128</dim>
					<dim>32</dim>
					<dim>56</dim>
				</port>
			</output>
		</layer>
		<layer id="122" name="471" type="ReLU" version="opset1">
			<rt_info>
				<attribute name="fused_names" version="0" value="471"/>
			</rt_info>
			<input>
				<port id="0" precision="FP32">
					<dim>1</dim>
					<dim>128</dim>
					<dim>32</dim>
					<dim>56</dim>
				</port>
			</input>
			<output>
				<port id="1" precision="FP32" names="471">
					<dim>1</dim>
					<dim>128</dim>
					<dim>32</dim>
					<dim>56</dim>
				</port>
			</output>
		</layer>
		<layer id="123" name="Reshape_2146" type="Const" version="opset1">
			<data element_type="f32" shape="128, 1, 1, 3, 3" offset="6685708" size="4608"/>
			<output>
				<port id="0" precision="FP32">
					<dim>128</dim>
					<dim>1</dim>
					<dim>1</dim>
					<dim>3</dim>
					<dim>3</dim>
				</port>
			</output>
		</layer>
		<layer id="124" name="472" type="GroupConvolution" version="opset1">
			<data strides="1, 1" pads_begin="1, 1" pads_end="1, 1" dilations="1, 1" auto_pad="explicit"/>
			<rt_info>
				<attribute name="fused_names" version="0" value="472, Reshape_2146"/>
			</rt_info>
			<input>
				<port id="0" precision="FP32">
					<dim>1</dim>
					<dim>128</dim>
					<dim>32</dim>
					<dim>56</dim>
				</port>
				<port id="1" precision="FP32">
					<dim>128</dim>
					<dim>1</dim>
					<dim>1</dim>
					<dim>3</dim>
					<dim>3</dim>
				</port>
			</input>
			<output>
				<port id="2" precision="FP32" names="472">
					<dim>1</dim>
					<dim>128</dim>
					<dim>32</dim>
					<dim>56</dim>
				</port>
			</output>
		</layer>
		<layer id="125" name="473" type="Elu" version="opset1">
			<data alpha="1"/>
			<rt_info>
				<attribute name="fused_names" version="0" value="473"/>
			</rt_info>
			<input>
				<port id="0" precision="FP32">
					<dim>1</dim>
					<dim>128</dim>
					<dim>32</dim>
					<dim>56</dim>
				</port>
			</input>
			<output>
				<port id="1" precision="FP32" names="473">
					<dim>1</dim>
					<dim>128</dim>
					<dim>32</dim>
					<dim>56</dim>
				</port>
			</output>
		</layer>
		<layer id="126" name="cpm.trunk.0.2.weight" type="Const" version="opset1">
			<data element_type="f32" shape="128, 128, 1, 1" offset="6690316" size="65536"/>
			<rt_info>
				<attribute name="fused_names" version="0" value="cpm.trunk.0.2.weight"/>
			</rt_info>
			<output>
				<port id="0" precision="FP32" names="cpm.trunk.0.2.weight">
					<dim>128</dim>
					<dim>128</dim>
					<dim>1</dim>
					<dim>1</dim>
				</port>
			</output>
		</layer>
		<layer id="127" name="474" type="Convolution" version="opset1">
			<data strides="1, 1" dilations="1, 1" pads_begin="0, 0" pads_end="0, 0" auto_pad="explicit"/>
			<rt_info>
				<attribute name="fused_names" version="0" value="474"/>
			</rt_info>
			<input>
				<port id="0" precision="FP32">
					<dim>1</dim>
					<dim>128</dim>
					<dim>32</dim>
					<dim>56</dim>
				</port>
				<port id="1" precision="FP32">
					<dim>128</dim>
					<dim>128</dim>
					<dim>1</dim>
					<dim>1</dim>
				</port>
			</input>
			<output>
				<port id="2" precision="FP32" names="474">
					<dim>1</dim>
					<dim>128</dim>
					<dim>32</dim>
					<dim>56</dim>
				</port>
			</output>
		</layer>
		<layer id="128" name="475" type="Elu" version="opset1">
			<data alpha="1"/>
			<rt_info>
				<attribute name="fused_names" version="0" value="475"/>
			</rt_info>
			<input>
				<port id="0" precision="FP32">
					<dim>1</dim>
					<dim>128</dim>
					<dim>32</dim>
					<dim>56</dim>
				</port>
			</input>
			<output>
				<port id="1" precision="FP32" names="475">
					<dim>1</dim>
					<dim>128</dim>
					<dim>32</dim>
					<dim>56</dim>
				</port>
			</output>
		</layer>
		<layer id="129" name="Reshape_2225" type="Const" version="opset1">
			<data element_type="f32" shape="128, 1, 1, 3, 3" offset="6755852" size="4608"/>
			<output>
				<port id="0" precision="FP32">
					<dim>128</dim>
					<dim>1</dim>
					<dim>1</dim>
					<dim>3</dim>
					<dim>3</dim>
				</port>
			</output>
		</layer>
		<layer id="130" name="476" type="GroupConvolution" version="opset1">
			<data strides="1, 1" pads_begin="1, 1" pads_end="1, 1" dilations="1, 1" auto_pad="explicit"/>
			<rt_info>
				<attribute name="fused_names" version="0" value="476, Reshape_2225"/>
			</rt_info>
			<input>
				<port id="0" precision="FP32">
					<dim>1</dim>
					<dim>128</dim>
					<dim>32</dim>
					<dim>56</dim>
				</port>
				<port id="1" precision="FP32">
					<dim>128</dim>
					<dim>1</dim>
					<dim>1</dim>
					<dim>3</dim>
					<dim>3</dim>
				</port>
			</input>
			<output>
				<port id="2" precision="FP32" names="476">
					<dim>1</dim>
					<dim>128</dim>
					<dim>32</dim>
					<dim>56</dim>
				</port>
			</output>
		</layer>
		<layer id="131" name="477" type="Elu" version="opset1">
			<data alpha="1"/>
			<rt_info>
				<attribute name="fused_names" version="0" value="477"/>
			</rt_info>
			<input>
				<port id="0" precision="FP32">
					<dim>1</dim>
					<dim>128</dim>
					<dim>32</dim>
					<dim>56</dim>
				</port>
			</input>
			<output>
				<port id="1" precision="FP32" names="477">
					<dim>1</dim>
					<dim>128</dim>
					<dim>32</dim>
					<dim>56</dim>
				</port>
			</output>
		</layer>
		<layer id="132" name="cpm.trunk.1.2.weight" type="Const" version="opset1">
			<data element_type="f32" shape="128, 128, 1, 1" offset="6760460" size="65536"/>
			<rt_info>
				<attribute name="fused_names" version="0" value="cpm.trunk.1.2.weight"/>
			</rt_info>
			<output>
				<port id="0" precision="FP32" names="cpm.trunk.1.2.weight">
					<dim>128</dim>
					<dim>128</dim>
					<dim>1</dim>
					<dim>1</dim>
				</port>
			</output>
		</layer>
		<layer id="133" name="478" type="Convolution" version="opset1">
			<data strides="1, 1" dilations="1, 1" pads_begin="0, 0" pads_end="0, 0" auto_pad="explicit"/>
			<rt_info>
				<attribute name="fused_names" version="0" value="478"/>
			</rt_info>
			<input>
				<port id="0" precision="FP32">
					<dim>1</dim>
					<dim>128</dim>
					<dim>32</dim>
					<dim>56</dim>
				</port>
				<port id="1" precision="FP32">
					<dim>128</dim>
					<dim>128</dim>
					<dim>1</dim>
					<dim>1</dim>
				</port>
			</input>
			<output>
				<port id="2" precision="FP32" names="478">
					<dim>1</dim>
					<dim>128</dim>
					<dim>32</dim>
					<dim>56</dim>
				</port>
			</output>
		</layer>
		<layer id="134" name="479" type="Elu" version="opset1">
			<data alpha="1"/>
			<rt_info>
				<attribute name="fused_names" version="0" value="479"/>
			</rt_info>
			<input>
				<port id="0" precision="FP32">
					<dim>1</dim>
					<dim>128</dim>
					<dim>32</dim>
					<dim>56</dim>
				</port>
			</input>
			<output>
				<port id="1" precision="FP32" names="479">
					<dim>1</dim>
					<dim>128</dim>
					<dim>32</dim>
					<dim>56</dim>
				</port>
			</output>
		</layer>
		<layer id="135" name="Reshape_2304" type="Const" version="opset1">
			<data element_type="f32" shape="128, 1, 1, 3, 3" offset="6825996" size="4608"/>
			<output>
				<port id="0" precision="FP32">
					<dim>128</dim>
					<dim>1</dim>
					<dim>1</dim>
					<dim>3</dim>
					<dim>3</dim>
				</port>
			</output>
		</layer>
		<layer id="136" name="480" type="GroupConvolution" version="opset1">
			<data strides="1, 1" pads_begin="1, 1" pads_end="1, 1" dilations="1, 1" auto_pad="explicit"/>
			<rt_info>
				<attribute name="fused_names" version="0" value="480, Reshape_2304"/>
			</rt_info>
			<input>
				<port id="0" precision="FP32">
					<dim>1</dim>
					<dim>128</dim>
					<dim>32</dim>
					<dim>56</dim>
				</port>
				<port id="1" precision="FP32">
					<dim>128</dim>
					<dim>1</dim>
					<dim>1</dim>
					<dim>3</dim>
					<dim>3</dim>
				</port>
			</input>
			<output>
				<port id="2" precision="FP32" names="480">
					<dim>1</dim>
					<dim>128</dim>
					<dim>32</dim>
					<dim>56</dim>
				</port>
			</output>
		</layer>
		<layer id="137" name="481" type="Elu" version="opset1">
			<data alpha="1"/>
			<rt_info>
				<attribute name="fused_names" version="0" value="481"/>
			</rt_info>
			<input>
				<port id="0" precision="FP32">
					<dim>1</dim>
					<dim>128</dim>
					<dim>32</dim>
					<dim>56</dim>
				</port>
			</input>
			<output>
				<port id="1" precision="FP32" names="481">
					<dim>1</dim>
					<dim>128</dim>
					<dim>32</dim>
					<dim>56</dim>
				</port>
			</output>
		</layer>
		<layer id="138" name="cpm.trunk.2.2.weight" type="Const" version="opset1">
			<data element_type="f32" shape="128, 128, 1, 1" offset="6830604" size="65536"/>
			<rt_info>
				<attribute name="fused_names" version="0" value="cpm.trunk.2.2.weight"/>
			</rt_info>
			<output>
				<port id="0" precision="FP32" names="cpm.trunk.2.2.weight">
					<dim>128</dim>
					<dim>128</dim>
					<dim>1</dim>
					<dim>1</dim>
				</port>
			</output>
		</layer>
		<layer id="139" name="482" type="Convolution" version="opset1">
			<data strides="1, 1" dilations="1, 1" pads_begin="0, 0" pads_end="0, 0" auto_pad="explicit"/>
			<rt_info>
				<attribute name="fused_names" version="0" value="482"/>
			</rt_info>
			<input>
				<port id="0" precision="FP32">
					<dim>1</dim>
					<dim>128</dim>
					<dim>32</dim>
					<dim>56</dim>
				</port>
				<port id="1" precision="FP32">
					<dim>128</dim>
					<dim>128</dim>
					<dim>1</dim>
					<dim>1</dim>
				</port>
			</input>
			<output>
				<port id="2" precision="FP32" names="482">
					<dim>1</dim>
					<dim>128</dim>
					<dim>32</dim>
					<dim>56</dim>
				</port>
			</output>
		</layer>
		<layer id="140" name="483" type="Elu" version="opset1">
			<data alpha="1"/>
			<rt_info>
				<attribute name="fused_names" version="0" value="483"/>
			</rt_info>
			<input>
				<port id="0" precision="FP32">
					<dim>1</dim>
					<dim>128</dim>
					<dim>32</dim>
					<dim>56</dim>
				</port>
			</input>
			<output>
				<port id="1" precision="FP32" names="483">
					<dim>1</dim>
					<dim>128</dim>
					<dim>32</dim>
					<dim>56</dim>
				</port>
			</output>
		</layer>
		<layer id="141" name="484" type="Add" version="opset1">
			<data auto_broadcast="numpy"/>
			<rt_info>
				<attribute name="fused_names" version="0" value="484"/>
			</rt_info>
			<input>
				<port id="0" precision="FP32">
					<dim>1</dim>
					<dim>128</dim>
					<dim>32</dim>
					<dim>56</dim>
				</port>
				<port id="1" precision="FP32">
					<dim>1</dim>
					<dim>128</dim>
					<dim>32</dim>
					<dim>56</dim>
				</port>
			</input>
			<output>
				<port id="2" precision="FP32" names="484">
					<dim>1</dim>
					<dim>128</dim>
					<dim>32</dim>
					<dim>56</dim>
				</port>
			</output>
		</layer>
		<layer id="142" name="cpm.conv.0.weight" type="Const" version="opset1">
			<data element_type="f32" shape="128, 128, 3, 3" offset="6896140" size="589824"/>
			<rt_info>
				<attribute name="fused_names" version="0" value="cpm.conv.0.weight"/>
			</rt_info>
			<output>
				<port id="0" precision="FP32" names="cpm.conv.0.weight">
					<dim>128</dim>
					<dim>128</dim>
					<dim>3</dim>
					<dim>3</dim>
				</port>
			</output>
		</layer>
		<layer id="143" name="Convolution_2376" type="Convolution" version="opset1">
			<data strides="1, 1" dilations="1, 1" pads_begin="1, 1" pads_end="1, 1" auto_pad="explicit"/>
			<rt_info>
				<attribute name="fused_names" version="0" value="Convolution_2376"/>
			</rt_info>
			<input>
				<port id="0" precision="FP32">
					<dim>1</dim>
					<dim>128</dim>
					<dim>32</dim>
					<dim>56</dim>
				</port>
				<port id="1" precision="FP32">
					<dim>128</dim>
					<dim>128</dim>
					<dim>3</dim>
					<dim>3</dim>
				</port>
			</input>
			<output>
				<port id="2" precision="FP32">
					<dim>1</dim>
					<dim>128</dim>
					<dim>32</dim>
					<dim>56</dim>
				</port>
			</output>
		</layer>
		<layer id="144" name="Reshape_2396" type="Const" version="opset1">
			<data element_type="f32" shape="1, 128, 1, 1" offset="7485964" size="512"/>
			<output>
				<port id="0" precision="FP32">
					<dim>1</dim>
					<dim>128</dim>
					<dim>1</dim>
					<dim>1</dim>
				</port>
			</output>
		</layer>
		<layer id="145" name="485" type="Add" version="opset1">
			<data auto_broadcast="numpy"/>
			<rt_info>
				<attribute name="fused_names" version="0" value="485, Concat_2395, Reshape_2396"/>
			</rt_info>
			<input>
				<port id="0" precision="FP32">
					<dim>1</dim>
					<dim>128</dim>
					<dim>32</dim>
					<dim>56</dim>
				</port>
				<port id="1" precision="FP32">
					<dim>1</dim>
					<dim>128</dim>
					<dim>1</dim>
					<dim>1</dim>
				</port>
			</input>
			<output>
				<port id="2" precision="FP32" names="485">
					<dim>1</dim>
					<dim>128</dim>
					<dim>32</dim>
					<dim>56</dim>
				</port>
			</output>
		</layer>
		<layer id="146" name="486" type="ReLU" version="opset1">
			<rt_info>
				<attribute name="fused_names" version="0" value="486"/>
			</rt_info>
			<input>
				<port id="0" precision="FP32">
					<dim>1</dim>
					<dim>128</dim>
					<dim>32</dim>
					<dim>56</dim>
				</port>
			</input>
			<output>
				<port id="1" precision="FP32" names="486">
					<dim>1</dim>
					<dim>128</dim>
					<dim>32</dim>
					<dim>56</dim>
				</port>
			</output>
		</layer>
		<layer id="147" name="initial_stage.trunk.0.0.weight" type="Const" version="opset1">
			<data element_type="f32" shape="128, 128, 3, 3" offset="7486476" size="589824"/>
			<rt_info>
				<attribute name="fused_names" version="0" value="initial_stage.trunk.0.0.weight"/>
			</rt_info>
			<output>
				<port id="0" precision="FP32" names="initial_stage.trunk.0.0.weight">
					<dim>128</dim>
					<dim>128</dim>
					<dim>3</dim>
					<dim>3</dim>
				</port>
			</output>
		</layer>
		<layer id="148" name="Convolution_2425" type="Convolution" version="opset1">
			<data strides="1, 1" dilations="1, 1" pads_begin="1, 1" pads_end="1, 1" auto_pad="explicit"/>
			<rt_info>
				<attribute name="fused_names" version="0" value="Convolution_2425"/>
			</rt_info>
			<input>
				<port id="0" precision="FP32">
					<dim>1</dim>
					<dim>128</dim>
					<dim>32</dim>
					<dim>56</dim>
				</port>
				<port id="1" precision="FP32">
					<dim>128</dim>
					<dim>128</dim>
					<dim>3</dim>
					<dim>3</dim>
				</port>
			</input>
			<output>
				<port id="2" precision="FP32">
					<dim>1</dim>
					<dim>128</dim>
					<dim>32</dim>
					<dim>56</dim>
				</port>
			</output>
		</layer>
		<layer id="149" name="Reshape_2445" type="Const" version="opset1">
			<data element_type="f32" shape="1, 128, 1, 1" offset="8076300" size="512"/>
			<output>
				<port id="0" precision="FP32">
					<dim>1</dim>
					<dim>128</dim>
					<dim>1</dim>
					<dim>1</dim>
				</port>
			</output>
		</layer>
		<layer id="150" name="487" type="Add" version="opset1">
			<data auto_broadcast="numpy"/>
			<rt_info>
				<attribute name="fused_names" version="0" value="487, Concat_2444, Reshape_2445"/>
			</rt_info>
			<input>
				<port id="0" precision="FP32">
					<dim>1</dim>
					<dim>128</dim>
					<dim>32</dim>
					<dim>56</dim>
				</port>
				<port id="1" precision="FP32">
					<dim>1</dim>
					<dim>128</dim>
					<dim>1</dim>
					<dim>1</dim>
				</port>
			</input>
			<output>
				<port id="2" precision="FP32" names="487">
					<dim>1</dim>
					<dim>128</dim>
					<dim>32</dim>
					<dim>56</dim>
				</port>
			</output>
		</layer>
		<layer id="151" name="488" type="ReLU" version="opset1">
			<rt_info>
				<attribute name="fused_names" version="0" value="488"/>
			</rt_info>
			<input>
				<port id="0" precision="FP32">
					<dim>1</dim>
					<dim>128</dim>
					<dim>32</dim>
					<dim>56</dim>
				</port>
			</input>
			<output>
				<port id="1" precision="FP32" names="488">
					<dim>1</dim>
					<dim>128</dim>
					<dim>32</dim>
					<dim>56</dim>
				</port>
			</output>
		</layer>
		<layer id="152" name="initial_stage.trunk.1.0.weight" type="Const" version="opset1">
			<data element_type="f32" shape="128, 128, 3, 3" offset="8076812" size="589824"/>
			<rt_info>
				<attribute name="fused_names" version="0" value="initial_stage.trunk.1.0.weight"/>
			</rt_info>
			<output>
				<port id="0" precision="FP32" names="initial_stage.trunk.1.0.weight">
					<dim>128</dim>
					<dim>128</dim>
					<dim>3</dim>
					<dim>3</dim>
				</port>
			</output>
		</layer>
		<layer id="153" name="Convolution_2474" type="Convolution" version="opset1">
			<data strides="1, 1" dilations="1, 1" pads_begin="1, 1" pads_end="1, 1" auto_pad="explicit"/>
			<rt_info>
				<attribute name="fused_names" version="0" value="Convolution_2474"/>
			</rt_info>
			<input>
				<port id="0" precision="FP32">
					<dim>1</dim>
					<dim>128</dim>
					<dim>32</dim>
					<dim>56</dim>
				</port>
				<port id="1" precision="FP32">
					<dim>128</dim>
					<dim>128</dim>
					<dim>3</dim>
					<dim>3</dim>
				</port>
			</input>
			<output>
				<port id="2" precision="FP32">
					<dim>1</dim>
					<dim>128</dim>
					<dim>32</dim>
					<dim>56</dim>
				</port>
			</output>
		</layer>
		<layer id="154" name="Reshape_2494" type="Const" version="opset1">
			<data element_type="f32" shape="1, 128, 1, 1" offset="8666636" size="512"/>
			<output>
				<port id="0" precision="FP32">
					<dim>1</dim>
					<dim>128</dim>
					<dim>1</dim>
					<dim>1</dim>
				</port>
			</output>
		</layer>
		<layer id="155" name="489" type="Add" version="opset1">
			<data auto_broadcast="numpy"/>
			<rt_info>
				<attribute name="fused_names" version="0" value="489, Concat_2493, Reshape_2494"/>
			</rt_info>
			<input>
				<port id="0" precision="FP32">
					<dim>1</dim>
					<dim>128</dim>
					<dim>32</dim>
					<dim>56</dim>
				</port>
				<port id="1" precision="FP32">
					<dim>1</dim>
					<dim>128</dim>
					<dim>1</dim>
					<dim>1</dim>
				</port>
			</input>
			<output>
				<port id="2" precision="FP32" names="489">
					<dim>1</dim>
					<dim>128</dim>
					<dim>32</dim>
					<dim>56</dim>
				</port>
			</output>
		</layer>
		<layer id="156" name="490" type="ReLU" version="opset1">
			<rt_info>
				<attribute name="fused_names" version="0" value="490"/>
			</rt_info>
			<input>
				<port id="0" precision="FP32">
					<dim>1</dim>
					<dim>128</dim>
					<dim>32</dim>
					<dim>56</dim>
				</port>
			</input>
			<output>
				<port id="1" precision="FP32" names="490">
					<dim>1</dim>
					<dim>128</dim>
					<dim>32</dim>
					<dim>56</dim>
				</port>
			</output>
		</layer>
		<layer id="157" name="initial_stage.trunk.2.0.weight" type="Const" version="opset1">
			<data element_type="f32" shape="128, 128, 3, 3" offset="8667148" size="589824"/>
			<rt_info>
				<attribute name="fused_names" version="0" value="initial_stage.trunk.2.0.weight"/>
			</rt_info>
			<output>
				<port id="0" precision="FP32" names="initial_stage.trunk.2.0.weight">
					<dim>128</dim>
					<dim>128</dim>
					<dim>3</dim>
					<dim>3</dim>
				</port>
			</output>
		</layer>
		<layer id="158" name="Convolution_2523" type="Convolution" version="opset1">
			<data strides="1, 1" dilations="1, 1" pads_begin="1, 1" pads_end="1, 1" auto_pad="explicit"/>
			<rt_info>
				<attribute name="fused_names" version="0" value="Convolution_2523"/>
			</rt_info>
			<input>
				<port id="0" precision="FP32">
					<dim>1</dim>
					<dim>128</dim>
					<dim>32</dim>
					<dim>56</dim>
				</port>
				<port id="1" precision="FP32">
					<dim>128</dim>
					<dim>128</dim>
					<dim>3</dim>
					<dim>3</dim>
				</port>
			</input>
			<output>
				<port id="2" precision="FP32">
					<dim>1</dim>
					<dim>128</dim>
					<dim>32</dim>
					<dim>56</dim>
				</port>
			</output>
		</layer>
		<layer id="159" name="Reshape_2543" type="Const" version="opset1">
			<data element_type="f32" shape="1, 128, 1, 1" offset="9256972" size="512"/>
			<output>
				<port id="0" precision="FP32">
					<dim>1</dim>
					<dim>128</dim>
					<dim>1</dim>
					<dim>1</dim>
				</port>
			</output>
		</layer>
		<layer id="160" name="491" type="Add" version="opset1">
			<data auto_broadcast="numpy"/>
			<rt_info>
				<attribute name="fused_names" version="0" value="491, Concat_2542, Reshape_2543"/>
			</rt_info>
			<input>
				<port id="0" precision="FP32">
					<dim>1</dim>
					<dim>128</dim>
					<dim>32</dim>
					<dim>56</dim>
				</port>
				<port id="1" precision="FP32">
					<dim>1</dim>
					<dim>128</dim>
					<dim>1</dim>
					<dim>1</dim>
				</port>
			</input>
			<output>
				<port id="2" precision="FP32" names="491">
					<dim>1</dim>
					<dim>128</dim>
					<dim>32</dim>
					<dim>56</dim>
				</port>
			</output>
		</layer>
		<layer id="161" name="492" type="ReLU" version="opset1">
			<rt_info>
				<attribute name="fused_names" version="0" value="492"/>
			</rt_info>
			<input>
				<port id="0" precision="FP32">
					<dim>1</dim>
					<dim>128</dim>
					<dim>32</dim>
					<dim>56</dim>
				</port>
			</input>
			<output>
				<port id="1" precision="FP32" names="492">
					<dim>1</dim>
					<dim>128</dim>
					<dim>32</dim>
					<dim>56</dim>
				</port>
			</output>
		</layer>
		<layer id="162" name="initial_stage.heatmaps.0.0.weight" type="Const" version="opset1">
			<data element_type="f32" shape="512, 128, 1, 1" offset="9257484" size="262144"/>
			<rt_info>
				<attribute name="fused_names" version="0" value="initial_stage.heatmaps.0.0.weight"/>
			</rt_info>
			<output>
				<port id="0" precision="FP32" names="initial_stage.heatmaps.0.0.weight">
					<dim>512</dim>
					<dim>128</dim>
					<dim>1</dim>
					<dim>1</dim>
				</port>
			</output>
		</layer>
		<layer id="163" name="Convolution_2572" type="Convolution" version="opset1">
			<data strides="1, 1" dilations="1, 1" pads_begin="0, 0" pads_end="0, 0" auto_pad="explicit"/>
			<rt_info>
				<attribute name="fused_names" version="0" value="Convolution_2572"/>
			</rt_info>
			<input>
				<port id="0" precision="FP32">
					<dim>1</dim>
					<dim>128</dim>
					<dim>32</dim>
					<dim>56</dim>
				</port>
				<port id="1" precision="FP32">
					<dim>512</dim>
					<dim>128</dim>
					<dim>1</dim>
					<dim>1</dim>
				</port>
			</input>
			<output>
				<port id="2" precision="FP32">
					<dim>1</dim>
					<dim>512</dim>
					<dim>32</dim>
					<dim>56</dim>
				</port>
			</output>
		</layer>
		<layer id="164" name="Reshape_2592" type="Const" version="opset1">
			<data element_type="f32" shape="1, 512, 1, 1" offset="9519628" size="2048"/>
			<output>
				<port id="0" precision="FP32">
					<dim>1</dim>
					<dim>512</dim>
					<dim>1</dim>
					<dim>1</dim>
				</port>
			</output>
		</layer>
		<layer id="165" name="493" type="Add" version="opset1">
			<data auto_broadcast="numpy"/>
			<rt_info>
				<attribute name="fused_names" version="0" value="493, Concat_2591, Reshape_2592"/>
			</rt_info>
			<input>
				<port id="0" precision="FP32">
					<dim>1</dim>
					<dim>512</dim>
					<dim>32</dim>
					<dim>56</dim>
				</port>
				<port id="1" precision="FP32">
					<dim>1</dim>
					<dim>512</dim>
					<dim>1</dim>
					<dim>1</dim>
				</port>
			</input>
			<output>
				<port id="2" precision="FP32" names="493">
					<dim>1</dim>
					<dim>512</dim>
					<dim>32</dim>
					<dim>56</dim>
				</port>
			</output>
		</layer>
		<layer id="166" name="494" type="ReLU" version="opset1">
			<rt_info>
				<attribute name="fused_names" version="0" value="494"/>
			</rt_info>
			<input>
				<port id="0" precision="FP32">
					<dim>1</dim>
					<dim>512</dim>
					<dim>32</dim>
					<dim>56</dim>
				</port>
			</input>
			<output>
				<port id="1" precision="FP32" names="494">
					<dim>1</dim>
					<dim>512</dim>
					<dim>32</dim>
					<dim>56</dim>
				</port>
			</output>
		</layer>
		<layer id="167" name="initial_stage.heatmaps.1.0.weight" type="Const" version="opset1">
			<data element_type="f32" shape="19, 512, 1, 1" offset="9521676" size="38912"/>
			<rt_info>
				<attribute name="fused_names" version="0" value="initial_stage.heatmaps.1.0.weight"/>
			</rt_info>
			<output>
				<port id="0" precision="FP32" names="initial_stage.heatmaps.1.0.weight">
					<dim>19</dim>
					<dim>512</dim>
					<dim>1</dim>
					<dim>1</dim>
				</port>
			</output>
		</layer>
		<layer id="168" name="Convolution_2621" type="Convolution" version="opset1">
			<data strides="1, 1" dilations="1, 1" pads_begin="0, 0" pads_end="0, 0" auto_pad="explicit"/>
			<rt_info>
				<attribute name="fused_names" version="0" value="Convolution_2621"/>
			</rt_info>
			<input>
				<port id="0" precision="FP32">
					<dim>1</dim>
					<dim>512</dim>
					<dim>32</dim>
					<dim>56</dim>
				</port>
				<port id="1" precision="FP32">
					<dim>19</dim>
					<dim>512</dim>
					<dim>1</dim>
					<dim>1</dim>
				</port>
			</input>
			<output>
				<port id="2" precision="FP32">
					<dim>1</dim>
					<dim>19</dim>
					<dim>32</dim>
					<dim>56</dim>
				</port>
			</output>
		</layer>
		<layer id="169" name="Reshape_2641" type="Const" version="opset1">
			<data element_type="f32" shape="1, 19, 1, 1" offset="9560588" size="76"/>
			<output>
				<port id="0" precision="FP32">
					<dim>1</dim>
					<dim>19</dim>
					<dim>1</dim>
					<dim>1</dim>
				</port>
			</output>
		</layer>
		<layer id="170" name="495" type="Add" version="opset1">
			<data auto_broadcast="numpy"/>
			<rt_info>
				<attribute name="fused_names" version="0" value="495, Concat_2640, Reshape_2641"/>
			</rt_info>
			<input>
				<port id="0" precision="FP32">
					<dim>1</dim>
					<dim>19</dim>
					<dim>32</dim>
					<dim>56</dim>
				</port>
				<port id="1" precision="FP32">
					<dim>1</dim>
					<dim>19</dim>
					<dim>1</dim>
					<dim>1</dim>
				</port>
			</input>
			<output>
				<port id="2" precision="FP32" names="495">
					<dim>1</dim>
					<dim>19</dim>
					<dim>32</dim>
					<dim>56</dim>
				</port>
			</output>
		</layer>
		<layer id="171" name="initial_stage.pafs.0.0.weight" type="Const" version="opset1">
			<data element_type="f32" shape="512, 128, 1, 1" offset="9560664" size="262144"/>
			<rt_info>
				<attribute name="fused_names" version="0" value="initial_stage.pafs.0.0.weight"/>
			</rt_info>
			<output>
				<port id="0" precision="FP32" names="initial_stage.pafs.0.0.weight">
					<dim>512</dim>
					<dim>128</dim>
					<dim>1</dim>
					<dim>1</dim>
				</port>
			</output>
		</layer>
		<layer id="172" name="Convolution_2669" type="Convolution" version="opset1">
			<data strides="1, 1" dilations="1, 1" pads_begin="0, 0" pads_end="0, 0" auto_pad="explicit"/>
			<rt_info>
				<attribute name="fused_names" version="0" value="Convolution_2669"/>
			</rt_info>
			<input>
				<port id="0" precision="FP32">
					<dim>1</dim>
					<dim>128</dim>
					<dim>32</dim>
					<dim>56</dim>
				</port>
				<port id="1" precision="FP32">
					<dim>512</dim>
					<dim>128</dim>
					<dim>1</dim>
					<dim>1</dim>
				</port>
			</input>
			<output>
				<port id="2" precision="FP32">
					<dim>1</dim>
					<dim>512</dim>
					<dim>32</dim>
					<dim>56</dim>
				</port>
			</output>
		</layer>
		<layer id="173" name="Reshape_2689" type="Const" version="opset1">
			<data element_type="f32" shape="1, 512, 1, 1" offset="9822808" size="2048"/>
			<output>
				<port id="0" precision="FP32">
					<dim>1</dim>
					<dim>512</dim>
					<dim>1</dim>
					<dim>1</dim>
				</port>
			</output>
		</layer>
		<layer id="174" name="496" type="Add" version="opset1">
			<data auto_broadcast="numpy"/>
			<rt_info>
				<attribute name="fused_names" version="0" value="496, Concat_2688, Reshape_2689"/>
			</rt_info>
			<input>
				<port id="0" precision="FP32">
					<dim>1</dim>
					<dim>512</dim>
					<dim>32</dim>
					<dim>56</dim>
				</port>
				<port id="1" precision="FP32">
					<dim>1</dim>
					<dim>512</dim>
					<dim>1</dim>
					<dim>1</dim>
				</port>
			</input>
			<output>
				<port id="2" precision="FP32" names="496">
					<dim>1</dim>
					<dim>512</dim>
					<dim>32</dim>
					<dim>56</dim>
				</port>
			</output>
		</layer>
		<layer id="175" name="497" type="ReLU" version="opset1">
			<rt_info>
				<attribute name="fused_names" version="0" value="497"/>
			</rt_info>
			<input>
				<port id="0" precision="FP32">
					<dim>1</dim>
					<dim>512</dim>
					<dim>32</dim>
					<dim>56</dim>
				</port>
			</input>
			<output>
				<port id="1" precision="FP32" names="497">
					<dim>1</dim>
					<dim>512</dim>
					<dim>32</dim>
					<dim>56</dim>
				</port>
			</output>
		</layer>
		<layer id="176" name="initial_stage.pafs.1.0.weight" type="Const" version="opset1">
			<data element_type="f32" shape="38, 512, 1, 1" offset="9824856" size="77824"/>
			<rt_info>
				<attribute name="fused_names" version="0" value="initial_stage.pafs.1.0.weight"/>
			</rt_info>
			<output>
				<port id="0" precision="FP32" names="initial_stage.pafs.1.0.weight">
					<dim>38</dim>
					<dim>512</dim>
					<dim>1</dim>
					<dim>1</dim>
				</port>
			</output>
		</layer>
		<layer id="177" name="Convolution_2718" type="Convolution" version="opset1">
			<data strides="1, 1" dilations="1, 1" pads_begin="0, 0" pads_end="0, 0" auto_pad="explicit"/>
			<rt_info>
				<attribute name="fused_names" version="0" value="Convolution_2718"/>
			</rt_info>
			<input>
				<port id="0" precision="FP32">
					<dim>1</dim>
					<dim>512</dim>
					<dim>32</dim>
					<dim>56</dim>
				</port>
				<port id="1" precision="FP32">
					<dim>38</dim>
					<dim>512</dim>
					<dim>1</dim>
					<dim>1</dim>
				</port>
			</input>
			<output>
				<port id="2" precision="FP32">
					<dim>1</dim>
					<dim>38</dim>
					<dim>32</dim>
					<dim>56</dim>
				</port>
			</output>
		</layer>
		<layer id="178" name="Reshape_2738" type="Const" version="opset1">
			<data element_type="f32" shape="1, 38, 1, 1" offset="9902680" size="152"/>
			<output>
				<port id="0" precision="FP32">
					<dim>1</dim>
					<dim>38</dim>
					<dim>1</dim>
					<dim>1</dim>
				</port>
			</output>
		</layer>
		<layer id="179" name="498" type="Add" version="opset1">
			<data auto_broadcast="numpy"/>
			<rt_info>
				<attribute name="fused_names" version="0" value="498, Concat_2737, Reshape_2738"/>
			</rt_info>
			<input>
				<port id="0" precision="FP32">
					<dim>1</dim>
					<dim>38</dim>
					<dim>32</dim>
					<dim>56</dim>
				</port>
				<port id="1" precision="FP32">
					<dim>1</dim>
					<dim>38</dim>
					<dim>1</dim>
					<dim>1</dim>
				</port>
			</input>
			<output>
				<port id="2" precision="FP32" names="498">
					<dim>1</dim>
					<dim>38</dim>
					<dim>32</dim>
					<dim>56</dim>
				</port>
			</output>
		</layer>
		<layer id="180" name="499" type="Concat" version="opset1">
			<data axis="1"/>
			<rt_info>
				<attribute name="fused_names" version="0" value="499"/>
			</rt_info>
			<input>
				<port id="0" precision="FP32">
					<dim>1</dim>
					<dim>128</dim>
					<dim>32</dim>
					<dim>56</dim>
				</port>
				<port id="1" precision="FP32">
					<dim>1</dim>
					<dim>19</dim>
					<dim>32</dim>
					<dim>56</dim>
				</port>
				<port id="2" precision="FP32">
					<dim>1</dim>
					<dim>38</dim>
					<dim>32</dim>
					<dim>56</dim>
				</port>
			</input>
			<output>
				<port id="3" precision="FP32" names="499">
					<dim>1</dim>
					<dim>185</dim>
					<dim>32</dim>
					<dim>56</dim>
				</port>
			</output>
		</layer>
		<layer id="181" name="refinement_stages.0.trunk.0.initial.0.weight" type="Const" version="opset1">
			<data element_type="f32" shape="128, 185, 1, 1" offset="9902832" size="94720"/>
			<rt_info>
				<attribute name="fused_names" version="0" value="refinement_stages.0.trunk.0.initial.0.weight"/>
			</rt_info>
			<output>
				<port id="0" precision="FP32" names="refinement_stages.0.trunk.0.initial.0.weight">
					<dim>128</dim>
					<dim>185</dim>
					<dim>1</dim>
					<dim>1</dim>
				</port>
			</output>
		</layer>
		<layer id="182" name="Convolution_2767" type="Convolution" version="opset1">
			<data strides="1, 1" dilations="1, 1" pads_begin="0, 0" pads_end="0, 0" auto_pad="explicit"/>
			<rt_info>
				<attribute name="fused_names" version="0" value="Convolution_2767"/>
			</rt_info>
			<input>
				<port id="0" precision="FP32">
					<dim>1</dim>
					<dim>185</dim>
					<dim>32</dim>
					<dim>56</dim>
				</port>
				<port id="1" precision="FP32">
					<dim>128</dim>
					<dim>185</dim>
					<dim>1</dim>
					<dim>1</dim>
				</port>
			</input>
			<output>
				<port id="2" precision="FP32">
					<dim>1</dim>
					<dim>128</dim>
					<dim>32</dim>
					<dim>56</dim>
				</port>
			</output>
		</layer>
		<layer id="183" name="Reshape_2787" type="Const" version="opset1">
			<data element_type="f32" shape="1, 128, 1, 1" offset="9997552" size="512"/>
			<output>
				<port id="0" precision="FP32">
					<dim>1</dim>
					<dim>128</dim>
					<dim>1</dim>
					<dim>1</dim>
				</port>
			</output>
		</layer>
		<layer id="184" name="500" type="Add" version="opset1">
			<data auto_broadcast="numpy"/>
			<rt_info>
				<attribute name="fused_names" version="0" value="500, Concat_2786, Reshape_2787"/>
			</rt_info>
			<input>
				<port id="0" precision="FP32">
					<dim>1</dim>
					<dim>128</dim>
					<dim>32</dim>
					<dim>56</dim>
				</port>
				<port id="1" precision="FP32">
					<dim>1</dim>
					<dim>128</dim>
					<dim>1</dim>
					<dim>1</dim>
				</port>
			</input>
			<output>
				<port id="2" precision="FP32" names="500">
					<dim>1</dim>
					<dim>128</dim>
					<dim>32</dim>
					<dim>56</dim>
				</port>
			</output>
		</layer>
		<layer id="185" name="501" type="ReLU" version="opset1">
			<rt_info>
				<attribute name="fused_names" version="0" value="501"/>
			</rt_info>
			<input>
				<port id="0" precision="FP32">
					<dim>1</dim>
					<dim>128</dim>
					<dim>32</dim>
					<dim>56</dim>
				</port>
			</input>
			<output>
				<port id="1" precision="FP32" names="501">
					<dim>1</dim>
					<dim>128</dim>
					<dim>32</dim>
					<dim>56</dim>
				</port>
			</output>
		</layer>
		<layer id="186" name="701" type="Const" version="opset1">
			<data element_type="f32" shape="128, 128, 3, 3" offset="9998064" size="589824"/>
			<rt_info>
				<attribute name="fused_names" version="0" value="701"/>
			</rt_info>
			<output>
				<port id="0" precision="FP32" names="701">
					<dim>128</dim>
					<dim>128</dim>
					<dim>3</dim>
					<dim>3</dim>
				</port>
			</output>
		</layer>
		<layer id="187" name="Convolution_2816" type="Convolution" version="opset1">
			<data strides="1, 1" dilations="1, 1" pads_begin="1, 1" pads_end="1, 1" auto_pad="explicit"/>
			<rt_info>
				<attribute name="fused_names" version="0" value="Convolution_2816"/>
			</rt_info>
			<input>
				<port id="0" precision="FP32">
					<dim>1</dim>
					<dim>128</dim>
					<dim>32</dim>
					<dim>56</dim>
				</port>
				<port id="1" precision="FP32">
					<dim>128</dim>
					<dim>128</dim>
					<dim>3</dim>
					<dim>3</dim>
				</port>
			</input>
			<output>
				<port id="2" precision="FP32">
					<dim>1</dim>
					<dim>128</dim>
					<dim>32</dim>
					<dim>56</dim>
				</port>
			</output>
		</layer>
		<layer id="188" name="Reshape_2836" type="Const" version="opset1">
			<data element_type="f32" shape="1, 128, 1, 1" offset="10587888" size="512"/>
			<output>
				<port id="0" precision="FP32">
					<dim>1</dim>
					<dim>128</dim>
					<dim>1</dim>
					<dim>1</dim>
				</port>
			</output>
		</layer>
		<layer id="189" name="700" type="Add" version="opset1">
			<data auto_broadcast="numpy"/>
			<rt_info>
				<attribute name="fused_names" version="0" value="700, Concat_2835, Reshape_2836"/>
			</rt_info>
			<input>
				<port id="0" precision="FP32">
					<dim>1</dim>
					<dim>128</dim>
					<dim>32</dim>
					<dim>56</dim>
				</port>
				<port id="1" precision="FP32">
					<dim>1</dim>
					<dim>128</dim>
					<dim>1</dim>
					<dim>1</dim>
				</port>
			</input>
			<output>
				<port id="2" precision="FP32" names="700">
					<dim>1</dim>
					<dim>128</dim>
					<dim>32</dim>
					<dim>56</dim>
				</port>
			</output>
		</layer>
		<layer id="190" name="504" type="ReLU" version="opset1">
			<rt_info>
				<attribute name="fused_names" version="0" value="504"/>
			</rt_info>
			<input>
				<port id="0" precision="FP32">
					<dim>1</dim>
					<dim>128</dim>
					<dim>32</dim>
					<dim>56</dim>
				</port>
			</input>
			<output>
				<port id="1" precision="FP32" names="504">
					<dim>1</dim>
					<dim>128</dim>
					<dim>32</dim>
					<dim>56</dim>
				</port>
			</output>
		</layer>
		<layer id="191" name="704" type="Const" version="opset1">
			<data element_type="f32" shape="128, 128, 3, 3" offset="10588400" size="589824"/>
			<rt_info>
				<attribute name="fused_names" version="0" value="704"/>
			</rt_info>
			<output>
				<port id="0" precision="FP32" names="704">
					<dim>128</dim>
					<dim>128</dim>
					<dim>3</dim>
					<dim>3</dim>
				</port>
			</output>
		</layer>
		<layer id="192" name="Convolution_2865" type="Convolution" version="opset1">
			<data strides="1, 1" dilations="2, 2" pads_begin="2, 2" pads_end="2, 2" auto_pad="explicit"/>
			<rt_info>
				<attribute name="fused_names" version="0" value="Convolution_2865"/>
			</rt_info>
			<input>
				<port id="0" precision="FP32">
					<dim>1</dim>
					<dim>128</dim>
					<dim>32</dim>
					<dim>56</dim>
				</port>
				<port id="1" precision="FP32">
					<dim>128</dim>
					<dim>128</dim>
					<dim>3</dim>
					<dim>3</dim>
				</port>
			</input>
			<output>
				<port id="2" precision="FP32">
					<dim>1</dim>
					<dim>128</dim>
					<dim>32</dim>
					<dim>56</dim>
				</port>
			</output>
		</layer>
		<layer id="193" name="Reshape_2885" type="Const" version="opset1">
			<data element_type="f32" shape="1, 128, 1, 1" offset="11178224" size="512"/>
			<output>
				<port id="0" precision="FP32">
					<dim>1</dim>
					<dim>128</dim>
					<dim>1</dim>
					<dim>1</dim>
				</port>
			</output>
		</layer>
		<layer id="194" name="703" type="Add" version="opset1">
			<data auto_broadcast="numpy"/>
			<rt_info>
				<attribute name="fused_names" version="0" value="703, Concat_2884, Reshape_2885"/>
			</rt_info>
			<input>
				<port id="0" precision="FP32">
					<dim>1</dim>
					<dim>128</dim>
					<dim>32</dim>
					<dim>56</dim>
				</port>
				<port id="1" precision="FP32">
					<dim>1</dim>
					<dim>128</dim>
					<dim>1</dim>
					<dim>1</dim>
				</port>
			</input>
			<output>
				<port id="2" precision="FP32" names="703">
					<dim>1</dim>
					<dim>128</dim>
					<dim>32</dim>
					<dim>56</dim>
				</port>
			</output>
		</layer>
		<layer id="195" name="507" type="ReLU" version="opset1">
			<rt_info>
				<attribute name="fused_names" version="0" value="507"/>
			</rt_info>
			<input>
				<port id="0" precision="FP32">
					<dim>1</dim>
					<dim>128</dim>
					<dim>32</dim>
					<dim>56</dim>
				</port>
			</input>
			<output>
				<port id="1" precision="FP32" names="507">
					<dim>1</dim>
					<dim>128</dim>
					<dim>32</dim>
					<dim>56</dim>
				</port>
			</output>
		</layer>
		<layer id="196" name="508" type="Add" version="opset1">
			<data auto_broadcast="numpy"/>
			<rt_info>
				<attribute name="fused_names" version="0" value="508"/>
			</rt_info>
			<input>
				<port id="0" precision="FP32">
					<dim>1</dim>
					<dim>128</dim>
					<dim>32</dim>
					<dim>56</dim>
				</port>
				<port id="1" precision="FP32">
					<dim>1</dim>
					<dim>128</dim>
					<dim>32</dim>
					<dim>56</dim>
				</port>
			</input>
			<output>
				<port id="2" precision="FP32" names="508">
					<dim>1</dim>
					<dim>128</dim>
					<dim>32</dim>
					<dim>56</dim>
				</port>
			</output>
		</layer>
		<layer id="197" name="refinement_stages.0.trunk.1.initial.0.weight" type="Const" version="opset1">
			<data element_type="f32" shape="128, 128, 1, 1" offset="11178736" size="65536"/>
			<rt_info>
				<attribute name="fused_names" version="0" value="refinement_stages.0.trunk.1.initial.0.weight"/>
			</rt_info>
			<output>
				<port id="0" precision="FP32" names="refinement_stages.0.trunk.1.initial.0.weight">
					<dim>128</dim>
					<dim>128</dim>
					<dim>1</dim>
					<dim>1</dim>
				</port>
			</output>
		</layer>
		<layer id="198" name="Convolution_2915" type="Convolution" version="opset1">
			<data strides="1, 1" dilations="1, 1" pads_begin="0, 0" pads_end="0, 0" auto_pad="explicit"/>
			<rt_info>
				<attribute name="fused_names" version="0" value="Convolution_2915"/>
			</rt_info>
			<input>
				<port id="0" precision="FP32">
					<dim>1</dim>
					<dim>128</dim>
					<dim>32</dim>
					<dim>56</dim>
				</port>
				<port id="1" precision="FP32">
					<dim>128</dim>
					<dim>128</dim>
					<dim>1</dim>
					<dim>1</dim>
				</port>
			</input>
			<output>
				<port id="2" precision="FP32">
					<dim>1</dim>
					<dim>128</dim>
					<dim>32</dim>
					<dim>56</dim>
				</port>
			</output>
		</layer>
		<layer id="199" name="Reshape_2935" type="Const" version="opset1">
			<data element_type="f32" shape="1, 128, 1, 1" offset="11244272" size="512"/>
			<output>
				<port id="0" precision="FP32">
					<dim>1</dim>
					<dim>128</dim>
					<dim>1</dim>
					<dim>1</dim>
				</port>
			</output>
		</layer>
		<layer id="200" name="509" type="Add" version="opset1">
			<data auto_broadcast="numpy"/>
			<rt_info>
				<attribute name="fused_names" version="0" value="509, Concat_2934, Reshape_2935"/>
			</rt_info>
			<input>
				<port id="0" precision="FP32">
					<dim>1</dim>
					<dim>128</dim>
					<dim>32</dim>
					<dim>56</dim>
				</port>
				<port id="1" precision="FP32">
					<dim>1</dim>
					<dim>128</dim>
					<dim>1</dim>
					<dim>1</dim>
				</port>
			</input>
			<output>
				<port id="2" precision="FP32" names="509">
					<dim>1</dim>
					<dim>128</dim>
					<dim>32</dim>
					<dim>56</dim>
				</port>
			</output>
		</layer>
		<layer id="201" name="510" type="ReLU" version="opset1">
			<rt_info>
				<attribute name="fused_names" version="0" value="510"/>
			</rt_info>
			<input>
				<port id="0" precision="FP32">
					<dim>1</dim>
					<dim>128</dim>
					<dim>32</dim>
					<dim>56</dim>
				</port>
			</input>
			<output>
				<port id="1" precision="FP32" names="510">
					<dim>1</dim>
					<dim>128</dim>
					<dim>32</dim>
					<dim>56</dim>
				</port>
			</output>
		</layer>
		<layer id="202" name="707" type="Const" version="opset1">
			<data element_type="f32" shape="128, 128, 3, 3" offset="11244784" size="589824"/>
			<rt_info>
				<attribute name="fused_names" version="0" value="707"/>
			</rt_info>
			<output>
				<port id="0" precision="FP32" names="707">
					<dim>128</dim>
					<dim>128</dim>
					<dim>3</dim>
					<dim>3</dim>
				</port>
			</output>
		</layer>
		<layer id="203" name="Convolution_2964" type="Convolution" version="opset1">
			<data strides="1, 1" dilations="1, 1" pads_begin="1, 1" pads_end="1, 1" auto_pad="explicit"/>
			<rt_info>
				<attribute name="fused_names" version="0" value="Convolution_2964"/>
			</rt_info>
			<input>
				<port id="0" precision="FP32">
					<dim>1</dim>
					<dim>128</dim>
					<dim>32</dim>
					<dim>56</dim>
				</port>
				<port id="1" precision="FP32">
					<dim>128</dim>
					<dim>128</dim>
					<dim>3</dim>
					<dim>3</dim>
				</port>
			</input>
			<output>
				<port id="2" precision="FP32">
					<dim>1</dim>
					<dim>128</dim>
					<dim>32</dim>
					<dim>56</dim>
				</port>
			</output>
		</layer>
		<layer id="204" name="Reshape_2984" type="Const" version="opset1">
			<data element_type="f32" shape="1, 128, 1, 1" offset="11834608" size="512"/>
			<output>
				<port id="0" precision="FP32">
					<dim>1</dim>
					<dim>128</dim>
					<dim>1</dim>
					<dim>1</dim>
				</port>
			</output>
		</layer>
		<layer id="205" name="706" type="Add" version="opset1">
			<data auto_broadcast="numpy"/>
			<rt_info>
				<attribute name="fused_names" version="0" value="706, Concat_2983, Reshape_2984"/>
			</rt_info>
			<input>
				<port id="0" precision="FP32">
					<dim>1</dim>
					<dim>128</dim>
					<dim>32</dim>
					<dim>56</dim>
				</port>
				<port id="1" precision="FP32">
					<dim>1</dim>
					<dim>128</dim>
					<dim>1</dim>
					<dim>1</dim>
				</port>
			</input>
			<output>
				<port id="2" precision="FP32" names="706">
					<dim>1</dim>
					<dim>128</dim>
					<dim>32</dim>
					<dim>56</dim>
				</port>
			</output>
		</layer>
		<layer id="206" name="513" type="ReLU" version="opset1">
			<rt_info>
				<attribute name="fused_names" version="0" value="513"/>
			</rt_info>
			<input>
				<port id="0" precision="FP32">
					<dim>1</dim>
					<dim>128</dim>
					<dim>32</dim>
					<dim>56</dim>
				</port>
			</input>
			<output>
				<port id="1" precision="FP32" names="513">
					<dim>1</dim>
					<dim>128</dim>
					<dim>32</dim>
					<dim>56</dim>
				</port>
			</output>
		</layer>
		<layer id="207" name="710" type="Const" version="opset1">
			<data element_type="f32" shape="128, 128, 3, 3" offset="11835120" size="589824"/>
			<rt_info>
				<attribute name="fused_names" version="0" value="710"/>
			</rt_info>
			<output>
				<port id="0" precision="FP32" names="710">
					<dim>128</dim>
					<dim>128</dim>
					<dim>3</dim>
					<dim>3</dim>
				</port>
			</output>
		</layer>
		<layer id="208" name="Convolution_3013" type="Convolution" version="opset1">
			<data strides="1, 1" dilations="2, 2" pads_begin="2, 2" pads_end="2, 2" auto_pad="explicit"/>
			<rt_info>
				<attribute name="fused_names" version="0" value="Convolution_3013"/>
			</rt_info>
			<input>
				<port id="0" precision="FP32">
					<dim>1</dim>
					<dim>128</dim>
					<dim>32</dim>
					<dim>56</dim>
				</port>
				<port id="1" precision="FP32">
					<dim>128</dim>
					<dim>128</dim>
					<dim>3</dim>
					<dim>3</dim>
				</port>
			</input>
			<output>
				<port id="2" precision="FP32">
					<dim>1</dim>
					<dim>128</dim>
					<dim>32</dim>
					<dim>56</dim>
				</port>
			</output>
		</layer>
		<layer id="209" name="Reshape_3033" type="Const" version="opset1">
			<data element_type="f32" shape="1, 128, 1, 1" offset="12424944" size="512"/>
			<output>
				<port id="0" precision="FP32">
					<dim>1</dim>
					<dim>128</dim>
					<dim>1</dim>
					<dim>1</dim>
				</port>
			</output>
		</layer>
		<layer id="210" name="709" type="Add" version="opset1">
			<data auto_broadcast="numpy"/>
			<rt_info>
				<attribute name="fused_names" version="0" value="709, Concat_3032, Reshape_3033"/>
			</rt_info>
			<input>
				<port id="0" precision="FP32">
					<dim>1</dim>
					<dim>128</dim>
					<dim>32</dim>
					<dim>56</dim>
				</port>
				<port id="1" precision="FP32">
					<dim>1</dim>
					<dim>128</dim>
					<dim>1</dim>
					<dim>1</dim>
				</port>
			</input>
			<output>
				<port id="2" precision="FP32" names="709">
					<dim>1</dim>
					<dim>128</dim>
					<dim>32</dim>
					<dim>56</dim>
				</port>
			</output>
		</layer>
		<layer id="211" name="516" type="ReLU" version="opset1">
			<rt_info>
				<attribute name="fused_names" version="0" value="516"/>
			</rt_info>
			<input>
				<port id="0" precision="FP32">
					<dim>1</dim>
					<dim>128</dim>
					<dim>32</dim>
					<dim>56</dim>
				</port>
			</input>
			<output>
				<port id="1" precision="FP32" names="516">
					<dim>1</dim>
					<dim>128</dim>
					<dim>32</dim>
					<dim>56</dim>
				</port>
			</output>
		</layer>
		<layer id="212" name="517" type="Add" version="opset1">
			<data auto_broadcast="numpy"/>
			<rt_info>
				<attribute name="fused_names" version="0" value="517"/>
			</rt_info>
			<input>
				<port id="0" precision="FP32">
					<dim>1</dim>
					<dim>128</dim>
					<dim>32</dim>
					<dim>56</dim>
				</port>
				<port id="1" precision="FP32">
					<dim>1</dim>
					<dim>128</dim>
					<dim>32</dim>
					<dim>56</dim>
				</port>
			</input>
			<output>
				<port id="2" precision="FP32" names="517">
					<dim>1</dim>
					<dim>128</dim>
					<dim>32</dim>
					<dim>56</dim>
				</port>
			</output>
		</layer>
		<layer id="213" name="refinement_stages.0.trunk.2.initial.0.weight" type="Const" version="opset1">
			<data element_type="f32" shape="128, 128, 1, 1" offset="12425456" size="65536"/>
			<rt_info>
				<attribute name="fused_names" version="0" value="refinement_stages.0.trunk.2.initial.0.weight"/>
			</rt_info>
			<output>
				<port id="0" precision="FP32" names="refinement_stages.0.trunk.2.initial.0.weight">
					<dim>128</dim>
					<dim>128</dim>
					<dim>1</dim>
					<dim>1</dim>
				</port>
			</output>
		</layer>
		<layer id="214" name="Convolution_3063" type="Convolution" version="opset1">
			<data strides="1, 1" dilations="1, 1" pads_begin="0, 0" pads_end="0, 0" auto_pad="explicit"/>
			<rt_info>
				<attribute name="fused_names" version="0" value="Convolution_3063"/>
			</rt_info>
			<input>
				<port id="0" precision="FP32">
					<dim>1</dim>
					<dim>128</dim>
					<dim>32</dim>
					<dim>56</dim>
				</port>
				<port id="1" precision="FP32">
					<dim>128</dim>
					<dim>128</dim>
					<dim>1</dim>
					<dim>1</dim>
				</port>
			</input>
			<output>
				<port id="2" precision="FP32">
					<dim>1</dim>
					<dim>128</dim>
					<dim>32</dim>
					<dim>56</dim>
				</port>
			</output>
		</layer>
		<layer id="215" name="Reshape_3083" type="Const" version="opset1">
			<data element_type="f32" shape="1, 128, 1, 1" offset="12490992" size="512"/>
			<output>
				<port id="0" precision="FP32">
					<dim>1</dim>
					<dim>128</dim>
					<dim>1</dim>
					<dim>1</dim>
				</port>
			</output>
		</layer>
		<layer id="216" name="518" type="Add" version="opset1">
			<data auto_broadcast="numpy"/>
			<rt_info>
				<attribute name="fused_names" version="0" value="518, Concat_3082, Reshape_3083"/>
			</rt_info>
			<input>
				<port id="0" precision="FP32">
					<dim>1</dim>
					<dim>128</dim>
					<dim>32</dim>
					<dim>56</dim>
				</port>
				<port id="1" precision="FP32">
					<dim>1</dim>
					<dim>128</dim>
					<dim>1</dim>
					<dim>1</dim>
				</port>
			</input>
			<output>
				<port id="2" precision="FP32" names="518">
					<dim>1</dim>
					<dim>128</dim>
					<dim>32</dim>
					<dim>56</dim>
				</port>
			</output>
		</layer>
		<layer id="217" name="519" type="ReLU" version="opset1">
			<rt_info>
				<attribute name="fused_names" version="0" value="519"/>
			</rt_info>
			<input>
				<port id="0" precision="FP32">
					<dim>1</dim>
					<dim>128</dim>
					<dim>32</dim>
					<dim>56</dim>
				</port>
			</input>
			<output>
				<port id="1" precision="FP32" names="519">
					<dim>1</dim>
					<dim>128</dim>
					<dim>32</dim>
					<dim>56</dim>
				</port>
			</output>
		</layer>
		<layer id="218" name="713" type="Const" version="opset1">
			<data element_type="f32" shape="128, 128, 3, 3" offset="12491504" size="589824"/>
			<rt_info>
				<attribute name="fused_names" version="0" value="713"/>
			</rt_info>
			<output>
				<port id="0" precision="FP32" names="713">
					<dim>128</dim>
					<dim>128</dim>
					<dim>3</dim>
					<dim>3</dim>
				</port>
			</output>
		</layer>
		<layer id="219" name="Convolution_3112" type="Convolution" version="opset1">
			<data strides="1, 1" dilations="1, 1" pads_begin="1, 1" pads_end="1, 1" auto_pad="explicit"/>
			<rt_info>
				<attribute name="fused_names" version="0" value="Convolution_3112"/>
			</rt_info>
			<input>
				<port id="0" precision="FP32">
					<dim>1</dim>
					<dim>128</dim>
					<dim>32</dim>
					<dim>56</dim>
				</port>
				<port id="1" precision="FP32">
					<dim>128</dim>
					<dim>128</dim>
					<dim>3</dim>
					<dim>3</dim>
				</port>
			</input>
			<output>
				<port id="2" precision="FP32">
					<dim>1</dim>
					<dim>128</dim>
					<dim>32</dim>
					<dim>56</dim>
				</port>
			</output>
		</layer>
		<layer id="220" name="Reshape_3132" type="Const" version="opset1">
			<data element_type="f32" shape="1, 128, 1, 1" offset="13081328" size="512"/>
			<output>
				<port id="0" precision="FP32">
					<dim>1</dim>
					<dim>128</dim>
					<dim>1</dim>
					<dim>1</dim>
				</port>
			</output>
		</layer>
		<layer id="221" name="712" type="Add" version="opset1">
			<data auto_broadcast="numpy"/>
			<rt_info>
				<attribute name="fused_names" version="0" value="712, Concat_3131, Reshape_3132"/>
			</rt_info>
			<input>
				<port id="0" precision="FP32">
					<dim>1</dim>
					<dim>128</dim>
					<dim>32</dim>
					<dim>56</dim>
				</port>
				<port id="1" precision="FP32">
					<dim>1</dim>
					<dim>128</dim>
					<dim>1</dim>
					<dim>1</dim>
				</port>
			</input>
			<output>
				<port id="2" precision="FP32" names="712">
					<dim>1</dim>
					<dim>128</dim>
					<dim>32</dim>
					<dim>56</dim>
				</port>
			</output>
		</layer>
		<layer id="222" name="522" type="ReLU" version="opset1">
			<rt_info>
				<attribute name="fused_names" version="0" value="522"/>
			</rt_info>
			<input>
				<port id="0" precision="FP32">
					<dim>1</dim>
					<dim>128</dim>
					<dim>32</dim>
					<dim>56</dim>
				</port>
			</input>
			<output>
				<port id="1" precision="FP32" names="522">
					<dim>1</dim>
					<dim>128</dim>
					<dim>32</dim>
					<dim>56</dim>
				</port>
			</output>
		</layer>
		<layer id="223" name="716" type="Const" version="opset1">
			<data element_type="f32" shape="128, 128, 3, 3" offset="13081840" size="589824"/>
			<rt_info>
				<attribute name="fused_names" version="0" value="716"/>
			</rt_info>
			<output>
				<port id="0" precision="FP32" names="716">
					<dim>128</dim>
					<dim>128</dim>
					<dim>3</dim>
					<dim>3</dim>
				</port>
			</output>
		</layer>
		<layer id="224" name="Convolution_3161" type="Convolution" version="opset1">
			<data strides="1, 1" dilations="2, 2" pads_begin="2, 2" pads_end="2, 2" auto_pad="explicit"/>
			<rt_info>
				<attribute name="fused_names" version="0" value="Convolution_3161"/>
			</rt_info>
			<input>
				<port id="0" precision="FP32">
					<dim>1</dim>
					<dim>128</dim>
					<dim>32</dim>
					<dim>56</dim>
				</port>
				<port id="1" precision="FP32">
					<dim>128</dim>
					<dim>128</dim>
					<dim>3</dim>
					<dim>3</dim>
				</port>
			</input>
			<output>
				<port id="2" precision="FP32">
					<dim>1</dim>
					<dim>128</dim>
					<dim>32</dim>
					<dim>56</dim>
				</port>
			</output>
		</layer>
		<layer id="225" name="Reshape_3181" type="Const" version="opset1">
			<data element_type="f32" shape="1, 128, 1, 1" offset="13671664" size="512"/>
			<output>
				<port id="0" precision="FP32">
					<dim>1</dim>
					<dim>128</dim>
					<dim>1</dim>
					<dim>1</dim>
				</port>
			</output>
		</layer>
		<layer id="226" name="715" type="Add" version="opset1">
			<data auto_broadcast="numpy"/>
			<rt_info>
				<attribute name="fused_names" version="0" value="715, Concat_3180, Reshape_3181"/>
			</rt_info>
			<input>
				<port id="0" precision="FP32">
					<dim>1</dim>
					<dim>128</dim>
					<dim>32</dim>
					<dim>56</dim>
				</port>
				<port id="1" precision="FP32">
					<dim>1</dim>
					<dim>128</dim>
					<dim>1</dim>
					<dim>1</dim>
				</port>
			</input>
			<output>
				<port id="2" precision="FP32" names="715">
					<dim>1</dim>
					<dim>128</dim>
					<dim>32</dim>
					<dim>56</dim>
				</port>
			</output>
		</layer>
		<layer id="227" name="525" type="ReLU" version="opset1">
			<rt_info>
				<attribute name="fused_names" version="0" value="525"/>
			</rt_info>
			<input>
				<port id="0" precision="FP32">
					<dim>1</dim>
					<dim>128</dim>
					<dim>32</dim>
					<dim>56</dim>
				</port>
			</input>
			<output>
				<port id="1" precision="FP32" names="525">
					<dim>1</dim>
					<dim>128</dim>
					<dim>32</dim>
					<dim>56</dim>
				</port>
			</output>
		</layer>
		<layer id="228" name="526" type="Add" version="opset1">
			<data auto_broadcast="numpy"/>
			<rt_info>
				<attribute name="fused_names" version="0" value="526"/>
			</rt_info>
			<input>
				<port id="0" precision="FP32">
					<dim>1</dim>
					<dim>128</dim>
					<dim>32</dim>
					<dim>56</dim>
				</port>
				<port id="1" precision="FP32">
					<dim>1</dim>
					<dim>128</dim>
					<dim>32</dim>
					<dim>56</dim>
				</port>
			</input>
			<output>
				<port id="2" precision="FP32" names="526">
					<dim>1</dim>
					<dim>128</dim>
					<dim>32</dim>
					<dim>56</dim>
				</port>
			</output>
		</layer>
		<layer id="229" name="refinement_stages.0.trunk.3.initial.0.weight" type="Const" version="opset1">
			<data element_type="f32" shape="128, 128, 1, 1" offset="13672176" size="65536"/>
			<rt_info>
				<attribute name="fused_names" version="0" value="refinement_stages.0.trunk.3.initial.0.weight"/>
			</rt_info>
			<output>
				<port id="0" precision="FP32" names="refinement_stages.0.trunk.3.initial.0.weight">
					<dim>128</dim>
					<dim>128</dim>
					<dim>1</dim>
					<dim>1</dim>
				</port>
			</output>
		</layer>
		<layer id="230" name="Convolution_3211" type="Convolution" version="opset1">
			<data strides="1, 1" dilations="1, 1" pads_begin="0, 0" pads_end="0, 0" auto_pad="explicit"/>
			<rt_info>
				<attribute name="fused_names" version="0" value="Convolution_3211"/>
			</rt_info>
			<input>
				<port id="0" precision="FP32">
					<dim>1</dim>
					<dim>128</dim>
					<dim>32</dim>
					<dim>56</dim>
				</port>
				<port id="1" precision="FP32">
					<dim>128</dim>
					<dim>128</dim>
					<dim>1</dim>
					<dim>1</dim>
				</port>
			</input>
			<output>
				<port id="2" precision="FP32">
					<dim>1</dim>
					<dim>128</dim>
					<dim>32</dim>
					<dim>56</dim>
				</port>
			</output>
		</layer>
		<layer id="231" name="Reshape_3231" type="Const" version="opset1">
			<data element_type="f32" shape="1, 128, 1, 1" offset="13737712" size="512"/>
			<output>
				<port id="0" precision="FP32">
					<dim>1</dim>
					<dim>128</dim>
					<dim>1</dim>
					<dim>1</dim>
				</port>
			</output>
		</layer>
		<layer id="232" name="527" type="Add" version="opset1">
			<data auto_broadcast="numpy"/>
			<rt_info>
				<attribute name="fused_names" version="0" value="527, Concat_3230, Reshape_3231"/>
			</rt_info>
			<input>
				<port id="0" precision="FP32">
					<dim>1</dim>
					<dim>128</dim>
					<dim>32</dim>
					<dim>56</dim>
				</port>
				<port id="1" precision="FP32">
					<dim>1</dim>
					<dim>128</dim>
					<dim>1</dim>
					<dim>1</dim>
				</port>
			</input>
			<output>
				<port id="2" precision="FP32" names="527">
					<dim>1</dim>
					<dim>128</dim>
					<dim>32</dim>
					<dim>56</dim>
				</port>
			</output>
		</layer>
		<layer id="233" name="528" type="ReLU" version="opset1">
			<rt_info>
				<attribute name="fused_names" version="0" value="528"/>
			</rt_info>
			<input>
				<port id="0" precision="FP32">
					<dim>1</dim>
					<dim>128</dim>
					<dim>32</dim>
					<dim>56</dim>
				</port>
			</input>
			<output>
				<port id="1" precision="FP32" names="528">
					<dim>1</dim>
					<dim>128</dim>
					<dim>32</dim>
					<dim>56</dim>
				</port>
			</output>
		</layer>
		<layer id="234" name="719" type="Const" version="opset1">
			<data element_type="f32" shape="128, 128, 3, 3" offset="13738224" size="589824"/>
			<rt_info>
				<attribute name="fused_names" version="0" value="719"/>
			</rt_info>
			<output>
				<port id="0" precision="FP32" names="719">
					<dim>128</dim>
					<dim>128</dim>
					<dim>3</dim>
					<dim>3</dim>
				</port>
			</output>
		</layer>
		<layer id="235" name="Convolution_3260" type="Convolution" version="opset1">
			<data strides="1, 1" dilations="1, 1" pads_begin="1, 1" pads_end="1, 1" auto_pad="explicit"/>
			<rt_info>
				<attribute name="fused_names" version="0" value="Convolution_3260"/>
			</rt_info>
			<input>
				<port id="0" precision="FP32">
					<dim>1</dim>
					<dim>128</dim>
					<dim>32</dim>
					<dim>56</dim>
				</port>
				<port id="1" precision="FP32">
					<dim>128</dim>
					<dim>128</dim>
					<dim>3</dim>
					<dim>3</dim>
				</port>
			</input>
			<output>
				<port id="2" precision="FP32">
					<dim>1</dim>
					<dim>128</dim>
					<dim>32</dim>
					<dim>56</dim>
				</port>
			</output>
		</layer>
		<layer id="236" name="Reshape_3280" type="Const" version="opset1">
			<data element_type="f32" shape="1, 128, 1, 1" offset="14328048" size="512"/>
			<output>
				<port id="0" precision="FP32">
					<dim>1</dim>
					<dim>128</dim>
					<dim>1</dim>
					<dim>1</dim>
				</port>
			</output>
		</layer>
		<layer id="237" name="718" type="Add" version="opset1">
			<data auto_broadcast="numpy"/>
			<rt_info>
				<attribute name="fused_names" version="0" value="718, Concat_3279, Reshape_3280"/>
			</rt_info>
			<input>
				<port id="0" precision="FP32">
					<dim>1</dim>
					<dim>128</dim>
					<dim>32</dim>
					<dim>56</dim>
				</port>
				<port id="1" precision="FP32">
					<dim>1</dim>
					<dim>128</dim>
					<dim>1</dim>
					<dim>1</dim>
				</port>
			</input>
			<output>
				<port id="2" precision="FP32" names="718">
					<dim>1</dim>
					<dim>128</dim>
					<dim>32</dim>
					<dim>56</dim>
				</port>
			</output>
		</layer>
		<layer id="238" name="531" type="ReLU" version="opset1">
			<rt_info>
				<attribute name="fused_names" version="0" value="531"/>
			</rt_info>
			<input>
				<port id="0" precision="FP32">
					<dim>1</dim>
					<dim>128</dim>
					<dim>32</dim>
					<dim>56</dim>
				</port>
			</input>
			<output>
				<port id="1" precision="FP32" names="531">
					<dim>1</dim>
					<dim>128</dim>
					<dim>32</dim>
					<dim>56</dim>
				</port>
			</output>
		</layer>
		<layer id="239" name="722" type="Const" version="opset1">
			<data element_type="f32" shape="128, 128, 3, 3" offset="14328560" size="589824"/>
			<rt_info>
				<attribute name="fused_names" version="0" value="722"/>
			</rt_info>
			<output>
				<port id="0" precision="FP32" names="722">
					<dim>128</dim>
					<dim>128</dim>
					<dim>3</dim>
					<dim>3</dim>
				</port>
			</output>
		</layer>
		<layer id="240" name="Convolution_3309" type="Convolution" version="opset1">
			<data strides="1, 1" dilations="2, 2" pads_begin="2, 2" pads_end="2, 2" auto_pad="explicit"/>
			<rt_info>
				<attribute name="fused_names" version="0" value="Convolution_3309"/>
			</rt_info>
			<input>
				<port id="0" precision="FP32">
					<dim>1</dim>
					<dim>128</dim>
					<dim>32</dim>
					<dim>56</dim>
				</port>
				<port id="1" precision="FP32">
					<dim>128</dim>
					<dim>128</dim>
					<dim>3</dim>
					<dim>3</dim>
				</port>
			</input>
			<output>
				<port id="2" precision="FP32">
					<dim>1</dim>
					<dim>128</dim>
					<dim>32</dim>
					<dim>56</dim>
				</port>
			</output>
		</layer>
		<layer id="241" name="Reshape_3329" type="Const" version="opset1">
			<data element_type="f32" shape="1, 128, 1, 1" offset="14918384" size="512"/>
			<output>
				<port id="0" precision="FP32">
					<dim>1</dim>
					<dim>128</dim>
					<dim>1</dim>
					<dim>1</dim>
				</port>
			</output>
		</layer>
		<layer id="242" name="721" type="Add" version="opset1">
			<data auto_broadcast="numpy"/>
			<rt_info>
				<attribute name="fused_names" version="0" value="721, Concat_3328, Reshape_3329"/>
			</rt_info>
			<input>
				<port id="0" precision="FP32">
					<dim>1</dim>
					<dim>128</dim>
					<dim>32</dim>
					<dim>56</dim>
				</port>
				<port id="1" precision="FP32">
					<dim>1</dim>
					<dim>128</dim>
					<dim>1</dim>
					<dim>1</dim>
				</port>
			</input>
			<output>
				<port id="2" precision="FP32" names="721">
					<dim>1</dim>
					<dim>128</dim>
					<dim>32</dim>
					<dim>56</dim>
				</port>
			</output>
		</layer>
		<layer id="243" name="534" type="ReLU" version="opset1">
			<rt_info>
				<attribute name="fused_names" version="0" value="534"/>
			</rt_info>
			<input>
				<port id="0" precision="FP32">
					<dim>1</dim>
					<dim>128</dim>
					<dim>32</dim>
					<dim>56</dim>
				</port>
			</input>
			<output>
				<port id="1" precision="FP32" names="534">
					<dim>1</dim>
					<dim>128</dim>
					<dim>32</dim>
					<dim>56</dim>
				</port>
			</output>
		</layer>
		<layer id="244" name="535" type="Add" version="opset1">
			<data auto_broadcast="numpy"/>
			<rt_info>
				<attribute name="fused_names" version="0" value="535"/>
			</rt_info>
			<input>
				<port id="0" precision="FP32">
					<dim>1</dim>
					<dim>128</dim>
					<dim>32</dim>
					<dim>56</dim>
				</port>
				<port id="1" precision="FP32">
					<dim>1</dim>
					<dim>128</dim>
					<dim>32</dim>
					<dim>56</dim>
				</port>
			</input>
			<output>
				<port id="2" precision="FP32" names="535">
					<dim>1</dim>
					<dim>128</dim>
					<dim>32</dim>
					<dim>56</dim>
				</port>
			</output>
		</layer>
		<layer id="245" name="refinement_stages.0.trunk.4.initial.0.weight" type="Const" version="opset1">
			<data element_type="f32" shape="128, 128, 1, 1" offset="14918896" size="65536"/>
			<rt_info>
				<attribute name="fused_names" version="0" value="refinement_stages.0.trunk.4.initial.0.weight"/>
			</rt_info>
			<output>
				<port id="0" precision="FP32" names="refinement_stages.0.trunk.4.initial.0.weight">
					<dim>128</dim>
					<dim>128</dim>
					<dim>1</dim>
					<dim>1</dim>
				</port>
			</output>
		</layer>
		<layer id="246" name="Convolution_3359" type="Convolution" version="opset1">
			<data strides="1, 1" dilations="1, 1" pads_begin="0, 0" pads_end="0, 0" auto_pad="explicit"/>
			<rt_info>
				<attribute name="fused_names" version="0" value="Convolution_3359"/>
			</rt_info>
			<input>
				<port id="0" precision="FP32">
					<dim>1</dim>
					<dim>128</dim>
					<dim>32</dim>
					<dim>56</dim>
				</port>
				<port id="1" precision="FP32">
					<dim>128</dim>
					<dim>128</dim>
					<dim>1</dim>
					<dim>1</dim>
				</port>
			</input>
			<output>
				<port id="2" precision="FP32">
					<dim>1</dim>
					<dim>128</dim>
					<dim>32</dim>
					<dim>56</dim>
				</port>
			</output>
		</layer>
		<layer id="247" name="Reshape_3379" type="Const" version="opset1">
			<data element_type="f32" shape="1, 128, 1, 1" offset="14984432" size="512"/>
			<output>
				<port id="0" precision="FP32">
					<dim>1</dim>
					<dim>128</dim>
					<dim>1</dim>
					<dim>1</dim>
				</port>
			</output>
		</layer>
		<layer id="248" name="536" type="Add" version="opset1">
			<data auto_broadcast="numpy"/>
			<rt_info>
				<attribute name="fused_names" version="0" value="536, Concat_3378, Reshape_3379"/>
			</rt_info>
			<input>
				<port id="0" precision="FP32">
					<dim>1</dim>
					<dim>128</dim>
					<dim>32</dim>
					<dim>56</dim>
				</port>
				<port id="1" precision="FP32">
					<dim>1</dim>
					<dim>128</dim>
					<dim>1</dim>
					<dim>1</dim>
				</port>
			</input>
			<output>
				<port id="2" precision="FP32" names="536">
					<dim>1</dim>
					<dim>128</dim>
					<dim>32</dim>
					<dim>56</dim>
				</port>
			</output>
		</layer>
		<layer id="249" name="537" type="ReLU" version="opset1">
			<rt_info>
				<attribute name="fused_names" version="0" value="537"/>
			</rt_info>
			<input>
				<port id="0" precision="FP32">
					<dim>1</dim>
					<dim>128</dim>
					<dim>32</dim>
					<dim>56</dim>
				</port>
			</input>
			<output>
				<port id="1" precision="FP32" names="537">
					<dim>1</dim>
					<dim>128</dim>
					<dim>32</dim>
					<dim>56</dim>
				</port>
			</output>
		</layer>
		<layer id="250" name="725" type="Const" version="opset1">
			<data element_type="f32" shape="128, 128, 3, 3" offset="14984944" size="589824"/>
			<rt_info>
				<attribute name="fused_names" version="0" value="725"/>
			</rt_info>
			<output>
				<port id="0" precision="FP32" names="725">
					<dim>128</dim>
					<dim>128</dim>
					<dim>3</dim>
					<dim>3</dim>
				</port>
			</output>
		</layer>
		<layer id="251" name="Convolution_3408" type="Convolution" version="opset1">
			<data strides="1, 1" dilations="1, 1" pads_begin="1, 1" pads_end="1, 1" auto_pad="explicit"/>
			<rt_info>
				<attribute name="fused_names" version="0" value="Convolution_3408"/>
			</rt_info>
			<input>
				<port id="0" precision="FP32">
					<dim>1</dim>
					<dim>128</dim>
					<dim>32</dim>
					<dim>56</dim>
				</port>
				<port id="1" precision="FP32">
					<dim>128</dim>
					<dim>128</dim>
					<dim>3</dim>
					<dim>3</dim>
				</port>
			</input>
			<output>
				<port id="2" precision="FP32">
					<dim>1</dim>
					<dim>128</dim>
					<dim>32</dim>
					<dim>56</dim>
				</port>
			</output>
		</layer>
		<layer id="252" name="Reshape_3428" type="Const" version="opset1">
			<data element_type="f32" shape="1, 128, 1, 1" offset="15574768" size="512"/>
			<output>
				<port id="0" precision="FP32">
					<dim>1</dim>
					<dim>128</dim>
					<dim>1</dim>
					<dim>1</dim>
				</port>
			</output>
		</layer>
		<layer id="253" name="724" type="Add" version="opset1">
			<data auto_broadcast="numpy"/>
			<rt_info>
				<attribute name="fused_names" version="0" value="724, Concat_3427, Reshape_3428"/>
			</rt_info>
			<input>
				<port id="0" precision="FP32">
					<dim>1</dim>
					<dim>128</dim>
					<dim>32</dim>
					<dim>56</dim>
				</port>
				<port id="1" precision="FP32">
					<dim>1</dim>
					<dim>128</dim>
					<dim>1</dim>
					<dim>1</dim>
				</port>
			</input>
			<output>
				<port id="2" precision="FP32" names="724">
					<dim>1</dim>
					<dim>128</dim>
					<dim>32</dim>
					<dim>56</dim>
				</port>
			</output>
		</layer>
		<layer id="254" name="540" type="ReLU" version="opset1">
			<rt_info>
				<attribute name="fused_names" version="0" value="540"/>
			</rt_info>
			<input>
				<port id="0" precision="FP32">
					<dim>1</dim>
					<dim>128</dim>
					<dim>32</dim>
					<dim>56</dim>
				</port>
			</input>
			<output>
				<port id="1" precision="FP32" names="540">
					<dim>1</dim>
					<dim>128</dim>
					<dim>32</dim>
					<dim>56</dim>
				</port>
			</output>
		</layer>
		<layer id="255" name="728" type="Const" version="opset1">
			<data element_type="f32" shape="128, 128, 3, 3" offset="15575280" size="589824"/>
			<rt_info>
				<attribute name="fused_names" version="0" value="728"/>
			</rt_info>
			<output>
				<port id="0" precision="FP32" names="728">
					<dim>128</dim>
					<dim>128</dim>
					<dim>3</dim>
					<dim>3</dim>
				</port>
			</output>
		</layer>
		<layer id="256" name="Convolution_3457" type="Convolution" version="opset1">
			<data strides="1, 1" dilations="2, 2" pads_begin="2, 2" pads_end="2, 2" auto_pad="explicit"/>
			<rt_info>
				<attribute name="fused_names" version="0" value="Convolution_3457"/>
			</rt_info>
			<input>
				<port id="0" precision="FP32">
					<dim>1</dim>
					<dim>128</dim>
					<dim>32</dim>
					<dim>56</dim>
				</port>
				<port id="1" precision="FP32">
					<dim>128</dim>
					<dim>128</dim>
					<dim>3</dim>
					<dim>3</dim>
				</port>
			</input>
			<output>
				<port id="2" precision="FP32">
					<dim>1</dim>
					<dim>128</dim>
					<dim>32</dim>
					<dim>56</dim>
				</port>
			</output>
		</layer>
		<layer id="257" name="Reshape_3477" type="Const" version="opset1">
			<data element_type="f32" shape="1, 128, 1, 1" offset="16165104" size="512"/>
			<output>
				<port id="0" precision="FP32">
					<dim>1</dim>
					<dim>128</dim>
					<dim>1</dim>
					<dim>1</dim>
				</port>
			</output>
		</layer>
		<layer id="258" name="727" type="Add" version="opset1">
			<data auto_broadcast="numpy"/>
			<rt_info>
				<attribute name="fused_names" version="0" value="727, Concat_3476, Reshape_3477"/>
			</rt_info>
			<input>
				<port id="0" precision="FP32">
					<dim>1</dim>
					<dim>128</dim>
					<dim>32</dim>
					<dim>56</dim>
				</port>
				<port id="1" precision="FP32">
					<dim>1</dim>
					<dim>128</dim>
					<dim>1</dim>
					<dim>1</dim>
				</port>
			</input>
			<output>
				<port id="2" precision="FP32" names="727">
					<dim>1</dim>
					<dim>128</dim>
					<dim>32</dim>
					<dim>56</dim>
				</port>
			</output>
		</layer>
		<layer id="259" name="543" type="ReLU" version="opset1">
			<rt_info>
				<attribute name="fused_names" version="0" value="543"/>
			</rt_info>
			<input>
				<port id="0" precision="FP32">
					<dim>1</dim>
					<dim>128</dim>
					<dim>32</dim>
					<dim>56</dim>
				</port>
			</input>
			<output>
				<port id="1" precision="FP32" names="543">
					<dim>1</dim>
					<dim>128</dim>
					<dim>32</dim>
					<dim>56</dim>
				</port>
			</output>
		</layer>
		<layer id="260" name="544" type="Add" version="opset1">
			<data auto_broadcast="numpy"/>
			<rt_info>
				<attribute name="fused_names" version="0" value="544"/>
			</rt_info>
			<input>
				<port id="0" precision="FP32">
					<dim>1</dim>
					<dim>128</dim>
					<dim>32</dim>
					<dim>56</dim>
				</port>
				<port id="1" precision="FP32">
					<dim>1</dim>
					<dim>128</dim>
					<dim>32</dim>
					<dim>56</dim>
				</port>
			</input>
			<output>
				<port id="2" precision="FP32" names="544">
					<dim>1</dim>
					<dim>128</dim>
					<dim>32</dim>
					<dim>56</dim>
				</port>
			</output>
		</layer>
		<layer id="261" name="refinement_stages.0.pafs.0.0.weight" type="Const" version="opset1">
			<data element_type="f32" shape="128, 128, 1, 1" offset="16165616" size="65536"/>
			<rt_info>
				<attribute name="fused_names" version="0" value="refinement_stages.0.pafs.0.0.weight"/>
			</rt_info>
			<output>
				<port id="0" precision="FP32" names="refinement_stages.0.pafs.0.0.weight">
					<dim>128</dim>
					<dim>128</dim>
					<dim>1</dim>
					<dim>1</dim>
				</port>
			</output>
		</layer>
		<layer id="262" name="Convolution_3604" type="Convolution" version="opset1">
			<data strides="1, 1" dilations="1, 1" pads_begin="0, 0" pads_end="0, 0" auto_pad="explicit"/>
			<rt_info>
				<attribute name="fused_names" version="0" value="Convolution_3604"/>
			</rt_info>
			<input>
				<port id="0" precision="FP32">
					<dim>1</dim>
					<dim>128</dim>
					<dim>32</dim>
					<dim>56</dim>
				</port>
				<port id="1" precision="FP32">
					<dim>128</dim>
					<dim>128</dim>
					<dim>1</dim>
					<dim>1</dim>
				</port>
			</input>
			<output>
				<port id="2" precision="FP32">
					<dim>1</dim>
					<dim>128</dim>
					<dim>32</dim>
					<dim>56</dim>
				</port>
			</output>
		</layer>
		<layer id="263" name="Reshape_3624" type="Const" version="opset1">
			<data element_type="f32" shape="1, 128, 1, 1" offset="16231152" size="512"/>
			<output>
				<port id="0" precision="FP32">
					<dim>1</dim>
					<dim>128</dim>
					<dim>1</dim>
					<dim>1</dim>
				</port>
			</output>
		</layer>
		<layer id="264" name="548" type="Add" version="opset1">
			<data auto_broadcast="numpy"/>
			<rt_info>
				<attribute name="fused_names" version="0" value="548, Concat_3623, Reshape_3624"/>
			</rt_info>
			<input>
				<port id="0" precision="FP32">
					<dim>1</dim>
					<dim>128</dim>
					<dim>32</dim>
					<dim>56</dim>
				</port>
				<port id="1" precision="FP32">
					<dim>1</dim>
					<dim>128</dim>
					<dim>1</dim>
					<dim>1</dim>
				</port>
			</input>
			<output>
				<port id="2" precision="FP32" names="548">
					<dim>1</dim>
					<dim>128</dim>
					<dim>32</dim>
					<dim>56</dim>
				</port>
			</output>
		</layer>
		<layer id="265" name="549" type="ReLU" version="opset1">
			<rt_info>
				<attribute name="fused_names" version="0" value="549"/>
			</rt_info>
			<input>
				<port id="0" precision="FP32">
					<dim>1</dim>
					<dim>128</dim>
					<dim>32</dim>
					<dim>56</dim>
				</port>
			</input>
			<output>
				<port id="1" precision="FP32" names="549">
					<dim>1</dim>
					<dim>128</dim>
					<dim>32</dim>
					<dim>56</dim>
				</port>
			</output>
		</layer>
		<layer id="266" name="refinement_stages.0.pafs.1.0.weight" type="Const" version="opset1">
			<data element_type="f32" shape="38, 128, 1, 1" offset="16231664" size="19456"/>
			<rt_info>
				<attribute name="fused_names" version="0" value="refinement_stages.0.pafs.1.0.weight"/>
			</rt_info>
			<output>
				<port id="0" precision="FP32" names="refinement_stages.0.pafs.1.0.weight">
					<dim>38</dim>
					<dim>128</dim>
					<dim>1</dim>
					<dim>1</dim>
				</port>
			</output>
		</layer>
		<layer id="267" name="Convolution_3653" type="Convolution" version="opset1">
			<data strides="1, 1" dilations="1, 1" pads_begin="0, 0" pads_end="0, 0" auto_pad="explicit"/>
			<rt_info>
				<attribute name="fused_names" version="0" value="Convolution_3653"/>
			</rt_info>
			<input>
				<port id="0" precision="FP32">
					<dim>1</dim>
					<dim>128</dim>
					<dim>32</dim>
					<dim>56</dim>
				</port>
				<port id="1" precision="FP32">
					<dim>38</dim>
					<dim>128</dim>
					<dim>1</dim>
					<dim>1</dim>
				</port>
			</input>
			<output>
				<port id="2" precision="FP32">
					<dim>1</dim>
					<dim>38</dim>
					<dim>32</dim>
					<dim>56</dim>
				</port>
			</output>
		</layer>
		<layer id="268" name="Reshape_3673" type="Const" version="opset1">
			<data element_type="f32" shape="1, 38, 1, 1" offset="16251120" size="152"/>
			<output>
				<port id="0" precision="FP32">
					<dim>1</dim>
					<dim>38</dim>
					<dim>1</dim>
					<dim>1</dim>
				</port>
			</output>
		</layer>
		<layer id="269" name="550" type="Add" version="opset1">
			<data auto_broadcast="numpy"/>
			<rt_info>
				<attribute name="fused_names" version="0" value="550, Concat_3672, Reshape_3673"/>
			</rt_info>
			<input>
				<port id="0" precision="FP32">
					<dim>1</dim>
					<dim>38</dim>
					<dim>32</dim>
					<dim>56</dim>
				</port>
				<port id="1" precision="FP32">
					<dim>1</dim>
					<dim>38</dim>
					<dim>1</dim>
					<dim>1</dim>
				</port>
			</input>
			<output>
				<port id="2" precision="FP32" names="550">
					<dim>1</dim>
					<dim>38</dim>
					<dim>32</dim>
					<dim>56</dim>
				</port>
			</output>
		</layer>
		<layer id="270" name="fake_conv_pafs.weight" type="Const" version="opset1">
			<data element_type="f32" shape="38, 38, 1, 1" offset="16251272" size="5776"/>
			<rt_info>
				<attribute name="fused_names" version="0" value="fake_conv_pafs.weight"/>
			</rt_info>
			<output>
				<port id="0" precision="FP32" names="fake_conv_pafs.weight">
					<dim>38</dim>
					<dim>38</dim>
					<dim>1</dim>
					<dim>1</dim>
				</port>
			</output>
		</layer>
		<layer id="271" name="553" type="Convolution" version="opset1">
			<data strides="1, 1" dilations="1, 1" pads_begin="0, 0" pads_end="0, 0" auto_pad="explicit"/>
			<rt_info>
				<attribute name="fused_names" version="0" value="553"/>
			</rt_info>
			<input>
				<port id="0" precision="FP32">
					<dim>1</dim>
					<dim>38</dim>
					<dim>32</dim>
					<dim>56</dim>
				</port>
				<port id="1" precision="FP32">
					<dim>38</dim>
					<dim>38</dim>
					<dim>1</dim>
					<dim>1</dim>
				</port>
			</input>
			<output>
				<port id="2" precision="FP32" names="553">
					<dim>1</dim>
					<dim>38</dim>
					<dim>32</dim>
					<dim>56</dim>
				</port>
			</output>
		</layer>
		<layer id="272" name="pafs" type="Add" version="opset1">
			<data auto_broadcast="numpy"/>
			<rt_info>
				<attribute name="fused_names" version="0" value="pafs"/>
			</rt_info>
			<input>
				<port id="0" precision="FP32">
					<dim>1</dim>
					<dim>38</dim>
					<dim>32</dim>
					<dim>56</dim>
				</port>
				<port id="1" precision="FP32">
					<dim>1</dim>
					<dim>38</dim>
					<dim>32</dim>
					<dim>56</dim>
				</port>
			</input>
			<output>
				<port id="2" precision="FP32" names="pafs">
					<dim>1</dim>
					<dim>38</dim>
					<dim>32</dim>
					<dim>56</dim>
				</port>
			</output>
		</layer>
		<layer id="274" name="refinement_stages.0.heatmaps.0.0.weight" type="Const" version="opset1">
			<data element_type="f32" shape="128, 128, 1, 1" offset="16257048" size="65536"/>
			<rt_info>
				<attribute name="fused_names" version="0" value="refinement_stages.0.heatmaps.0.0.weight"/>
			</rt_info>
			<output>
				<port id="0" precision="FP32" names="refinement_stages.0.heatmaps.0.0.weight">
					<dim>128</dim>
					<dim>128</dim>
					<dim>1</dim>
					<dim>1</dim>
				</port>
			</output>
		</layer>
		<layer id="275" name="Convolution_3507" type="Convolution" version="opset1">
			<data strides="1, 1" dilations="1, 1" pads_begin="0, 0" pads_end="0, 0" auto_pad="explicit"/>
			<rt_info>
				<attribute name="fused_names" version="0" value="Convolution_3507"/>
			</rt_info>
			<input>
				<port id="0" precision="FP32">
					<dim>1</dim>
					<dim>128</dim>
					<dim>32</dim>
					<dim>56</dim>
				</port>
				<port id="1" precision="FP32">
					<dim>128</dim>
					<dim>128</dim>
					<dim>1</dim>
					<dim>1</dim>
				</port>
			</input>
			<output>
				<port id="2" precision="FP32">
					<dim>1</dim>
					<dim>128</dim>
					<dim>32</dim>
					<dim>56</dim>
				</port>
			</output>
		</layer>
		<layer id="276" name="Reshape_3527" type="Const" version="opset1">
			<data element_type="f32" shape="1, 128, 1, 1" offset="16322584" size="512"/>
			<output>
				<port id="0" precision="FP32">
					<dim>1</dim>
					<dim>128</dim>
					<dim>1</dim>
					<dim>1</dim>
				</port>
			</output>
		</layer>
		<layer id="277" name="545" type="Add" version="opset1">
			<data auto_broadcast="numpy"/>
			<rt_info>
				<attribute name="fused_names" version="0" value="545, Concat_3526, Reshape_3527"/>
			</rt_info>
			<input>
				<port id="0" precision="FP32">
					<dim>1</dim>
					<dim>128</dim>
					<dim>32</dim>
					<dim>56</dim>
				</port>
				<port id="1" precision="FP32">
					<dim>1</dim>
					<dim>128</dim>
					<dim>1</dim>
					<dim>1</dim>
				</port>
			</input>
			<output>
				<port id="2" precision="FP32" names="545">
					<dim>1</dim>
					<dim>128</dim>
					<dim>32</dim>
					<dim>56</dim>
				</port>
			</output>
		</layer>
		<layer id="278" name="546" type="ReLU" version="opset1">
			<rt_info>
				<attribute name="fused_names" version="0" value="546"/>
			</rt_info>
			<input>
				<port id="0" precision="FP32">
					<dim>1</dim>
					<dim>128</dim>
					<dim>32</dim>
					<dim>56</dim>
				</port>
			</input>
			<output>
				<port id="1" precision="FP32" names="546">
					<dim>1</dim>
					<dim>128</dim>
					<dim>32</dim>
					<dim>56</dim>
				</port>
			</output>
		</layer>
		<layer id="279" name="refinement_stages.0.heatmaps.1.0.weight" type="Const" version="opset1">
			<data element_type="f32" shape="19, 128, 1, 1" offset="16323096" size="9728"/>
			<rt_info>
				<attribute name="fused_names" version="0" value="refinement_stages.0.heatmaps.1.0.weight"/>
			</rt_info>
			<output>
				<port id="0" precision="FP32" names="refinement_stages.0.heatmaps.1.0.weight">
					<dim>19</dim>
					<dim>128</dim>
					<dim>1</dim>
					<dim>1</dim>
				</port>
			</output>
		</layer>
		<layer id="280" name="Convolution_3556" type="Convolution" version="opset1">
			<data strides="1, 1" dilations="1, 1" pads_begin="0, 0" pads_end="0, 0" auto_pad="explicit"/>
			<rt_info>
				<attribute name="fused_names" version="0" value="Convolution_3556"/>
			</rt_info>
			<input>
				<port id="0" precision="FP32">
					<dim>1</dim>
					<dim>128</dim>
					<dim>32</dim>
					<dim>56</dim>
				</port>
				<port id="1" precision="FP32">
					<dim>19</dim>
					<dim>128</dim>
					<dim>1</dim>
					<dim>1</dim>
				</port>
			</input>
			<output>
				<port id="2" precision="FP32">
					<dim>1</dim>
					<dim>19</dim>
					<dim>32</dim>
					<dim>56</dim>
				</port>
			</output>
		</layer>
		<layer id="281" name="Reshape_3576" type="Const" version="opset1">
			<data element_type="f32" shape="1, 19, 1, 1" offset="16332824" size="76"/>
			<output>
				<port id="0" precision="FP32">
					<dim>1</dim>
					<dim>19</dim>
					<dim>1</dim>
					<dim>1</dim>
				</port>
			</output>
		</layer>
		<layer id="282" name="547" type="Add" version="opset1">
			<data auto_broadcast="numpy"/>
			<rt_info>
				<attribute name="fused_names" version="0" value="547, Concat_3575, Reshape_3576"/>
			</rt_info>
			<input>
				<port id="0" precision="FP32">
					<dim>1</dim>
					<dim>19</dim>
					<dim>32</dim>
					<dim>56</dim>
				</port>
				<port id="1" precision="FP32">
					<dim>1</dim>
					<dim>19</dim>
					<dim>1</dim>
					<dim>1</dim>
				</port>
			</input>
			<output>
				<port id="2" precision="FP32" names="547">
					<dim>1</dim>
					<dim>19</dim>
					<dim>32</dim>
					<dim>56</dim>
				</port>
			</output>
		</layer>
		<layer id="283" name="fake_conv_heatmaps.weight" type="Const" version="opset1">
			<data element_type="f32" shape="19, 19, 1, 1" offset="16332900" size="1444"/>
			<rt_info>
				<attribute name="fused_names" version="0" value="fake_conv_heatmaps.weight"/>
			</rt_info>
			<output>
				<port id="0" precision="FP32" names="fake_conv_heatmaps.weight">
					<dim>19</dim>
					<dim>19</dim>
					<dim>1</dim>
					<dim>1</dim>
				</port>
			</output>
		</layer>
		<layer id="284" name="551" type="Convolution" version="opset1">
			<data strides="1, 1" dilations="1, 1" pads_begin="0, 0" pads_end="0, 0" auto_pad="explicit"/>
			<rt_info>
				<attribute name="fused_names" version="0" value="551"/>
			</rt_info>
			<input>
				<port id="0" precision="FP32">
					<dim>1</dim>
					<dim>19</dim>
					<dim>32</dim>
					<dim>56</dim>
				</port>
				<port id="1" precision="FP32">
					<dim>19</dim>
					<dim>19</dim>
					<dim>1</dim>
					<dim>1</dim>
				</port>
			</input>
			<output>
				<port id="2" precision="FP32" names="551">
					<dim>1</dim>
					<dim>19</dim>
					<dim>32</dim>
					<dim>56</dim>
				</port>
			</output>
		</layer>
		<layer id="285" name="heatmaps" type="Add" version="opset1">
			<data auto_broadcast="numpy"/>
			<rt_info>
				<attribute name="fused_names" version="0" value="heatmaps"/>
			</rt_info>
			<input>
				<port id="0" precision="FP32">
					<dim>1</dim>
					<dim>19</dim>
					<dim>32</dim>
					<dim>56</dim>
				</port>
				<port id="1" precision="FP32">
					<dim>1</dim>
					<dim>19</dim>
					<dim>32</dim>
					<dim>56</dim>
				</port>
			</input>
			<output>
				<port id="2" precision="FP32" names="heatmaps">
					<dim>1</dim>
					<dim>19</dim>
					<dim>32</dim>
					<dim>56</dim>
				</port>
			</output>
		</layer>
		<layer id="287" name="555" type="Concat" version="opset1">
			<data axis="1"/>
			<rt_info>
				<attribute name="fused_names" version="0" value="555"/>
			</rt_info>
			<input>
				<port id="0" precision="FP32">
					<dim>1</dim>
					<dim>19</dim>
					<dim>32</dim>
					<dim>56</dim>
				</port>
				<port id="1" precision="FP32">
					<dim>1</dim>
					<dim>38</dim>
					<dim>32</dim>
					<dim>56</dim>
				</port>
			</input>
			<output>
				<port id="2" precision="FP32" names="555">
					<dim>1</dim>
					<dim>57</dim>
					<dim>32</dim>
					<dim>56</dim>
				</port>
			</output>
		</layer>
		<layer id="288" name="556" type="Concat" version="opset1">
			<data axis="1"/>
			<rt_info>
				<attribute name="fused_names" version="0" value="556"/>
			</rt_info>
			<input>
				<port id="0" precision="FP32">
					<dim>1</dim>
					<dim>128</dim>
					<dim>32</dim>
					<dim>56</dim>
				</port>
				<port id="1" precision="FP32">
					<dim>1</dim>
					<dim>57</dim>
					<dim>32</dim>
					<dim>56</dim>
				</port>
			</input>
			<output>
				<port id="2" precision="FP32" names="556">
					<dim>1</dim>
					<dim>185</dim>
					<dim>32</dim>
					<dim>56</dim>
				</port>
			</output>
		</layer>
		<layer id="289" name="740" type="Const" version="opset1">
			<data element_type="f32" shape="128, 185, 1, 1" offset="16334344" size="94720"/>
			<rt_info>
				<attribute name="fused_names" version="0" value="740"/>
			</rt_info>
			<output>
				<port id="0" precision="FP32" names="740">
					<dim>128</dim>
					<dim>185</dim>
					<dim>1</dim>
					<dim>1</dim>
				</port>
			</output>
		</layer>
		<layer id="290" name="Convolution_3856" type="Convolution" version="opset1">
			<data strides="1, 1" dilations="1, 1" pads_begin="0, 0" pads_end="0, 0" auto_pad="explicit"/>
			<rt_info>
				<attribute name="fused_names" version="0" value="Convolution_3856"/>
			</rt_info>
			<input>
				<port id="0" precision="FP32">
					<dim>1</dim>
					<dim>185</dim>
					<dim>32</dim>
					<dim>56</dim>
				</port>
				<port id="1" precision="FP32">
					<dim>128</dim>
					<dim>185</dim>
					<dim>1</dim>
					<dim>1</dim>
				</port>
			</input>
			<output>
				<port id="2" precision="FP32">
					<dim>1</dim>
					<dim>128</dim>
					<dim>32</dim>
					<dim>56</dim>
				</port>
			</output>
		</layer>
		<layer id="291" name="Reshape_3876" type="Const" version="opset1">
			<data element_type="f32" shape="1, 128, 1, 1" offset="16429064" size="512"/>
			<output>
				<port id="0" precision="FP32">
					<dim>1</dim>
					<dim>128</dim>
					<dim>1</dim>
					<dim>1</dim>
				</port>
			</output>
		</layer>
		<layer id="292" name="739" type="Add" version="opset1">
			<data auto_broadcast="numpy"/>
			<rt_info>
				<attribute name="fused_names" version="0" value="739, Concat_3875, Reshape_3876"/>
			</rt_info>
			<input>
				<port id="0" precision="FP32">
					<dim>1</dim>
					<dim>128</dim>
					<dim>32</dim>
					<dim>56</dim>
				</port>
				<port id="1" precision="FP32">
					<dim>1</dim>
…
				<port id="0" precision="FP32">
					<dim>1</dim>
					<dim>128</dim>
					<dim>32</dim>
					<dim>56</dim>
				</port>
				<port id="1" precision="FP32">
					<dim>1</dim>
					<dim>128</dim>
					<dim>1</dim>
					<dim>1</dim>
				</port>
			</input>
			<output>
				<port id="2" precision="FP32" names="778">
					<dim>1</dim>
					<dim>128</dim>
					<dim>32</dim>
					<dim>56</dim>
				</port>
			</output>
		</layer>
		<layer id="383" name="614" type="ReLU" version="opset1">
			<rt_info>
				<attribute name="fused_names" version="0" value="614"/>
			</rt_info>
			<input>
				<port id="0" precision="FP32">
					<dim>1</dim>
					<dim>128</dim>
					<dim>32</dim>
					<dim>56</dim>
				</port>
			</input>
			<output>
				<port id="1" precision="FP32" names="614">
					<dim>1</dim>
					<dim>128</dim>
					<dim>32</dim>
					<dim>56</dim>
				</port>
			</output>
		</layer>
		<layer id="384" name="782" type="Const" version="opset1">
			<data element_type="f32" shape="128, 128, 3, 3" offset="18363160" size="589824"/>
			<rt_info>
				<attribute name="fused_names" version="0" value="782"/>
			</rt_info>
			<output>
				<port id="0" precision="FP32" names="782">
					<dim>128</dim>
					<dim>128</dim>
					<dim>3</dim>
					<dim>3</dim>
				</port>
			</output>
		</layer>
		<layer id="385" name="Convolution_4596" type="Convolution" version="opset1">
			<data strides="1, 1" dilations="2, 2" pads_begin="2, 2" pads_end="2, 2" auto_pad="explicit"/>
			<rt_info>
				<attribute name="fused_names" version="0" value="Convolution_4596"/>
			</rt_info>
			<input>
				<port id="0" precision="FP32">
					<dim>1</dim>
					<dim>128</dim>
					<dim>32</dim>
					<dim>56</dim>
				</port>
				<port id="1" precision="FP32">
					<dim>128</dim>
					<dim>128</dim>
					<dim>3</dim>
					<dim>3</dim>
				</port>
			</input>
			<output>
				<port id="2" precision="FP32">
					<dim>1</dim>
					<dim>128</dim>
					<dim>32</dim>
					<dim>56</dim>
				</port>
			</output>
		</layer>
		<layer id="386" name="Reshape_4616" type="Const" version="opset1">
			<data element_type="f32" shape="1, 128, 1, 1" offset="18952984" size="512"/>
			<output>
				<port id="0" precision="FP32">
					<dim>1</dim>
					<dim>128</dim>
					<dim>1</dim>
					<dim>1</dim>
				</port>
			</output>
		</layer>
		<layer id="387" name="781" type="Add" version="opset1">
			<data auto_broadcast="numpy"/>
			<rt_info>
				<attribute name="fused_names" version="0" value="781, Concat_4615, Reshape_4616"/>
			</rt_info>
			<input>
				<port id="0" precision="FP32">
					<dim>1</dim>
					<dim>128</dim>
					<dim>32</dim>
					<dim>56</dim>
				</port>
				<port id="1" precision="FP32">
					<dim>1</dim>
					<dim>128</dim>
					<dim>1</dim>
					<dim>1</dim>
				</port>
			</input>
			<output>
				<port id="2" precision="FP32" names="781">
					<dim>1</dim>
					<dim>128</dim>
					<dim>32</dim>
					<dim>56</dim>
				</port>
			</output>
		</layer>
		<layer id="388" name="617" type="ReLU" version="opset1">
			<rt_info>
				<attribute name="fused_names" version="0" value="617"/>
			</rt_info>
			<input>
				<port id="0" precision="FP32">
					<dim>1</dim>
					<dim>128</dim>
					<dim>32</dim>
					<dim>56</dim>
				</port>
			</input>
			<output>
				<port id="1" precision="FP32" names="617">
					<dim>1</dim>
					<dim>128</dim>
					<dim>32</dim>
					<dim>56</dim>
				</port>
			</output>
		</layer>
		<layer id="389" name="618" type="Add" version="opset1">
			<data auto_broadcast="numpy"/>
			<rt_info>
				<attribute name="fused_names" version="0" value="618"/>
			</rt_info>
			<input>
				<port id="0" precision="FP32">
					<dim>1</dim>
					<dim>128</dim>
					<dim>32</dim>
					<dim>56</dim>
				</port>
				<port id="1" precision="FP32">
					<dim>1</dim>
					<dim>128</dim>
					<dim>32</dim>
					<dim>56</dim>
				</port>
			</input>
			<output>
				<port id="2" precision="FP32" names="618">
					<dim>1</dim>
					<dim>128</dim>
					<dim>32</dim>
					<dim>56</dim>
				</port>
			</output>
		</layer>
		<layer id="390" name="Pose3D.prediction.trunk.1.initial.0.weight" type="Const" version="opset1">
			<data element_type="f32" shape="128, 128, 1, 1" offset="18953496" size="65536"/>
			<rt_info>
				<attribute name="fused_names" version="0" value="Pose3D.prediction.trunk.1.initial.0.weight"/>
			</rt_info>
			<output>
				<port id="0" precision="FP32" names="Pose3D.prediction.trunk.1.initial.0.weight">
					<dim>128</dim>
					<dim>128</dim>
					<dim>1</dim>
					<dim>1</dim>
				</port>
			</output>
		</layer>
		<layer id="391" name="Convolution_4646" type="Convolution" version="opset1">
			<data strides="1, 1" dilations="1, 1" pads_begin="0, 0" pads_end="0, 0" auto_pad="explicit"/>
			<rt_info>
				<attribute name="fused_names" version="0" value="Convolution_4646"/>
			</rt_info>
			<input>
				<port id="0" precision="FP32">
					<dim>1</dim>
					<dim>128</dim>
					<dim>32</dim>
					<dim>56</dim>
				</port>
				<port id="1" precision="FP32">
					<dim>128</dim>
					<dim>128</dim>
					<dim>1</dim>
					<dim>1</dim>
				</port>
			</input>
			<output>
				<port id="2" precision="FP32">
					<dim>1</dim>
					<dim>128</dim>
					<dim>32</dim>
					<dim>56</dim>
				</port>
			</output>
		</layer>
		<layer id="392" name="Reshape_4666" type="Const" version="opset1">
			<data element_type="f32" shape="1, 128, 1, 1" offset="19019032" size="512"/>
			<output>
				<port id="0" precision="FP32">
					<dim>1</dim>
					<dim>128</dim>
					<dim>1</dim>
					<dim>1</dim>
				</port>
			</output>
		</layer>
		<layer id="393" name="619" type="Add" version="opset1">
			<data auto_broadcast="numpy"/>
			<rt_info>
				<attribute name="fused_names" version="0" value="619, Concat_4665, Reshape_4666"/>
			</rt_info>
			<input>
				<port id="0" precision="FP32">
					<dim>1</dim>
					<dim>128</dim>
					<dim>32</dim>
					<dim>56</dim>
				</port>
				<port id="1" precision="FP32">
					<dim>1</dim>
					<dim>128</dim>
					<dim>1</dim>
					<dim>1</dim>
				</port>
			</input>
			<output>
				<port id="2" precision="FP32" names="619">
					<dim>1</dim>
					<dim>128</dim>
					<dim>32</dim>
					<dim>56</dim>
				</port>
			</output>
		</layer>
		<layer id="394" name="620" type="ReLU" version="opset1">
			<rt_info>
				<attribute name="fused_names" version="0" value="620"/>
			</rt_info>
			<input>
				<port id="0" precision="FP32">
					<dim>1</dim>
					<dim>128</dim>
					<dim>32</dim>
					<dim>56</dim>
				</port>
			</input>
			<output>
				<port id="1" precision="FP32" names="620">
					<dim>1</dim>
					<dim>128</dim>
					<dim>32</dim>
					<dim>56</dim>
				</port>
			</output>
		</layer>
		<layer id="395" name="785" type="Const" version="opset1">
			<data element_type="f32" shape="128, 128, 3, 3" offset="19019544" size="589824"/>
			<rt_info>
				<attribute name="fused_names" version="0" value="785"/>
			</rt_info>
			<output>
				<port id="0" precision="FP32" names="785">
					<dim>128</dim>
					<dim>128</dim>
					<dim>3</dim>
					<dim>3</dim>
				</port>
			</output>
		</layer>
		<layer id="396" name="Convolution_4695" type="Convolution" version="opset1">
			<data strides="1, 1" dilations="1, 1" pads_begin="1, 1" pads_end="1, 1" auto_pad="explicit"/>
			<rt_info>
				<attribute name="fused_names" version="0" value="Convolution_4695"/>
			</rt_info>
			<input>
				<port id="0" precision="FP32">
					<dim>1</dim>
					<dim>128</dim>
					<dim>32</dim>
					<dim>56</dim>
				</port>
				<port id="1" precision="FP32">
					<dim>128</dim>
					<dim>128</dim>
					<dim>3</dim>
					<dim>3</dim>
				</port>
			</input>
			<output>
				<port id="2" precision="FP32">
					<dim>1</dim>
					<dim>128</dim>
					<dim>32</dim>
					<dim>56</dim>
				</port>
			</output>
		</layer>
		<layer id="397" name="Reshape_4715" type="Const" version="opset1">
			<data element_type="f32" shape="1, 128, 1, 1" offset="19609368" size="512"/>
			<output>
				<port id="0" precision="FP32">
					<dim>1</dim>
					<dim>128</dim>
					<dim>1</dim>
					<dim>1</dim>
				</port>
			</output>
		</layer>
		<layer id="398" name="784" type="Add" version="opset1">
			<data auto_broadcast="numpy"/>
			<rt_info>
				<attribute name="fused_names" version="0" value="784, Concat_4714, Reshape_4715"/>
			</rt_info>
			<input>
				<port id="0" precision="FP32">
					<dim>1</dim>
					<dim>128</dim>
					<dim>32</dim>
					<dim>56</dim>
				</port>
				<port id="1" precision="FP32">
					<dim>1</dim>
					<dim>128</dim>
					<dim>1</dim>
					<dim>1</dim>
				</port>
			</input>
			<output>
				<port id="2" precision="FP32" names="784">
					<dim>1</dim>
					<dim>128</dim>
					<dim>32</dim>
					<dim>56</dim>
				</port>
			</output>
		</layer>
		<layer id="399" name="623" type="ReLU" version="opset1">
			<rt_info>
				<attribute name="fused_names" version="0" value="623"/>
			</rt_info>
			<input>
				<port id="0" precision="FP32">
					<dim>1</dim>
					<dim>128</dim>
					<dim>32</dim>
					<dim>56</dim>
				</port>
			</input>
			<output>
				<port id="1" precision="FP32" names="623">
					<dim>1</dim>
					<dim>128</dim>
					<dim>32</dim>
					<dim>56</dim>
				</port>
			</output>
		</layer>
		<layer id="400" name="788" type="Const" version="opset1">
			<data element_type="f32" shape="128, 128, 3, 3" offset="19609880" size="589824"/>
			<rt_info>
				<attribute name="fused_names" version="0" value="788"/>
			</rt_info>
			<output>
				<port id="0" precision="FP32" names="788">
					<dim>128</dim>
					<dim>128</dim>
					<dim>3</dim>
					<dim>3</dim>
				</port>
			</output>
		</layer>
		<layer id="401" name="Convolution_4744" type="Convolution" version="opset1">
			<data strides="1, 1" dilations="2, 2" pads_begin="2, 2" pads_end="2, 2" auto_pad="explicit"/>
			<rt_info>
				<attribute name="fused_names" version="0" value="Convolution_4744"/>
			</rt_info>
			<input>
				<port id="0" precision="FP32">
					<dim>1</dim>
					<dim>128</dim>
					<dim>32</dim>
					<dim>56</dim>
				</port>
				<port id="1" precision="FP32">
					<dim>128</dim>
					<dim>128</dim>
					<dim>3</dim>
					<dim>3</dim>
				</port>
			</input>
			<output>
				<port id="2" precision="FP32">
					<dim>1</dim>
					<dim>128</dim>
					<dim>32</dim>
					<dim>56</dim>
				</port>
			</output>
		</layer>
		<layer id="402" name="Reshape_4764" type="Const" version="opset1">
			<data element_type="f32" shape="1, 128, 1, 1" offset="20199704" size="512"/>
			<output>
				<port id="0" precision="FP32">
					<dim>1</dim>
					<dim>128</dim>
					<dim>1</dim>
					<dim>1</dim>
				</port>
			</output>
		</layer>
		<layer id="403" name="787" type="Add" version="opset1">
			<data auto_broadcast="numpy"/>
			<rt_info>
				<attribute name="fused_names" version="0" value="787, Concat_4763, Reshape_4764"/>
			</rt_info>
			<input>
				<port id="0" precision="FP32">
					<dim>1</dim>
					<dim>128</dim>
					<dim>32</dim>
					<dim>56</dim>
				</port>
				<port id="1" precision="FP32">
					<dim>1</dim>
					<dim>128</dim>
					<dim>1</dim>
					<dim>1</dim>
				</port>
			</input>
			<output>
				<port id="2" precision="FP32" names="787">
					<dim>1</dim>
					<dim>128</dim>
					<dim>32</dim>
					<dim>56</dim>
				</port>
			</output>
		</layer>
		<layer id="404" name="626" type="ReLU" version="opset1">
			<rt_info>
				<attribute name="fused_names" version="0" value="626"/>
			</rt_info>
			<input>
				<port id="0" precision="FP32">
					<dim>1</dim>
					<dim>128</dim>
					<dim>32</dim>
					<dim>56</dim>
				</port>
			</input>
			<output>
				<port id="1" precision="FP32" names="626">
					<dim>1</dim>
					<dim>128</dim>
					<dim>32</dim>
					<dim>56</dim>
				</port>
			</output>
		</layer>
		<layer id="405" name="627" type="Add" version="opset1">
			<data auto_broadcast="numpy"/>
			<rt_info>
				<attribute name="fused_names" version="0" value="627"/>
			</rt_info>
			<input>
				<port id="0" precision="FP32">
					<dim>1</dim>
					<dim>128</dim>
					<dim>32</dim>
					<dim>56</dim>
				</port>
				<port id="1" precision="FP32">
					<dim>1</dim>
					<dim>128</dim>
					<dim>32</dim>
					<dim>56</dim>
				</port>
			</input>
			<output>
				<port id="2" precision="FP32" names="627">
					<dim>1</dim>
					<dim>128</dim>
					<dim>32</dim>
					<dim>56</dim>
				</port>
			</output>
		</layer>
		<layer id="406" name="Pose3D.prediction.feature_maps.0.0.weight" type="Const" version="opset1">
			<data element_type="f32" shape="128, 128, 1, 1" offset="20200216" size="65536"/>
			<rt_info>
				<attribute name="fused_names" version="0" value="Pose3D.prediction.feature_maps.0.0.weight"/>
			</rt_info>
			<output>
				<port id="0" precision="FP32" names="Pose3D.prediction.feature_maps.0.0.weight">
					<dim>128</dim>
					<dim>128</dim>
					<dim>1</dim>
					<dim>1</dim>
				</port>
			</output>
		</layer>
		<layer id="407" name="Convolution_4794" type="Convolution" version="opset1">
			<data strides="1, 1" dilations="1, 1" pads_begin="0, 0" pads_end="0, 0" auto_pad="explicit"/>
			<rt_info>
				<attribute name="fused_names" version="0" value="Convolution_4794"/>
			</rt_info>
			<input>
				<port id="0" precision="FP32">
					<dim>1</dim>
					<dim>128</dim>
					<dim>32</dim>
					<dim>56</dim>
				</port>
				<port id="1" precision="FP32">
					<dim>128</dim>
					<dim>128</dim>
					<dim>1</dim>
					<dim>1</dim>
				</port>
			</input>
			<output>
				<port id="2" precision="FP32">
					<dim>1</dim>
					<dim>128</dim>
					<dim>32</dim>
					<dim>56</dim>
				</port>
			</output>
		</layer>
		<layer id="408" name="Reshape_4814" type="Const" version="opset1">
			<data element_type="f32" shape="1, 128, 1, 1" offset="20265752" size="512"/>
			<output>
				<port id="0" precision="FP32">
					<dim>1</dim>
					<dim>128</dim>
					<dim>1</dim>
					<dim>1</dim>
				</port>
			</output>
		</layer>
		<layer id="409" name="628" type="Add" version="opset1">
			<data auto_broadcast="numpy"/>
			<rt_info>
				<attribute name="fused_names" version="0" value="628, Concat_4813, Reshape_4814"/>
			</rt_info>
			<input>
				<port id="0" precision="FP32">
					<dim>1</dim>
					<dim>128</dim>
					<dim>32</dim>
					<dim>56</dim>
				</port>
				<port id="1" precision="FP32">
					<dim>1</dim>
					<dim>128</dim>
					<dim>1</dim>
					<dim>1</dim>
				</port>
			</input>
			<output>
				<port id="2" precision="FP32" names="628">
					<dim>1</dim>
					<dim>128</dim>
					<dim>32</dim>
					<dim>56</dim>
				</port>
			</output>
		</layer>
		<layer id="410" name="629" type="ReLU" version="opset1">
			<rt_info>
				<attribute name="fused_names" version="0" value="629"/>
			</rt_info>
			<input>
				<port id="0" precision="FP32">
					<dim>1</dim>
					<dim>128</dim>
					<dim>32</dim>
					<dim>56</dim>
				</port>
			</input>
			<output>
				<port id="1" precision="FP32" names="629">
					<dim>1</dim>
					<dim>128</dim>
					<dim>32</dim>
					<dim>56</dim>
				</port>
			</output>
		</layer>
		<layer id="411" name="Pose3D.prediction.feature_maps.1.0.weight" type="Const" version="opset1">
			<data element_type="f32" shape="57, 128, 1, 1" offset="20266264" size="29184"/>
			<rt_info>
				<attribute name="fused_names" version="0" value="Pose3D.prediction.feature_maps.1.0.weight"/>
			</rt_info>
			<output>
				<port id="0" precision="FP32" names="Pose3D.prediction.feature_maps.1.0.weight">
					<dim>57</dim>
					<dim>128</dim>
					<dim>1</dim>
					<dim>1</dim>
				</port>
			</output>
		</layer>
		<layer id="412" name="Convolution_4843" type="Convolution" version="opset1">
			<data strides="1, 1" dilations="1, 1" pads_begin="0, 0" pads_end="0, 0" auto_pad="explicit"/>
			<rt_info>
				<attribute name="fused_names" version="0" value="Convolution_4843"/>
			</rt_info>
			<input>
				<port id="0" precision="FP32">
					<dim>1</dim>
					<dim>128</dim>
					<dim>32</dim>
					<dim>56</dim>
				</port>
				<port id="1" precision="FP32">
					<dim>57</dim>
					<dim>128</dim>
					<dim>1</dim>
					<dim>1</dim>
				</port>
			</input>
			<output>
				<port id="2" precision="FP32">
					<dim>1</dim>
					<dim>57</dim>
					<dim>32</dim>
					<dim>56</dim>
				</port>
			</output>
		</layer>
		<layer id="413" name="Reshape_4863" type="Const" version="opset1">
			<data element_type="f32" shape="1, 57, 1, 1" offset="20295448" size="228"/>
			<output>
				<port id="0" precision="FP32">
					<dim>1</dim>
					<dim>57</dim>
					<dim>1</dim>
					<dim>1</dim>
				</port>
			</output>
		</layer>
		<layer id="414" name="features" type="Add" version="opset1">
			<data auto_broadcast="numpy"/>
			<rt_info>
				<attribute name="fused_names" version="0" value="Concat_4862, Reshape_4863, features"/>
			</rt_info>
			<input>
				<port id="0" precision="FP32">
					<dim>1</dim>
					<dim>57</dim>
					<dim>32</dim>
					<dim>56</dim>
				</port>
				<port id="1" precision="FP32">
					<dim>1</dim>
					<dim>57</dim>
					<dim>1</dim>
					<dim>1</dim>
				</port>
			</input>
			<output>
				<port id="2" precision="FP32" names="features">
					<dim>1</dim>
					<dim>57</dim>
					<dim>32</dim>
					<dim>56</dim>
				</port>
			</output>
		</layer>
		<layer id="415" name="features/sink_port_0" type="Result" version="opset1">
			<rt_info>
				<attribute name="fused_names" version="0" value="features/sink_port_0"/>
			</rt_info>
			<input>
				<port id="0" precision="FP32">
					<dim>1</dim>
					<dim>57</dim>
					<dim>32</dim>
					<dim>56</dim>
				</port>
			</input>
		</layer>
		<layer id="286" name="heatmaps/sink_port_0" type="Result" version="opset1">
			<rt_info>
				<attribute name="fused_names" version="0" value="heatmaps/sink_port_0"/>
			</rt_info>
			<input>
				<port id="0" precision="FP32">
					<dim>1</dim>
					<dim>19</dim>
					<dim>32</dim>
					<dim>56</dim>
				</port>
			</input>
		</layer>
		<layer id="273" name="pafs/sink_port_0" type="Result" version="opset1">
			<rt_info>
				<attribute name="fused_names" version="0" value="pafs/sink_port_0"/>
			</rt_info>
			<input>
				<port id="0" precision="FP32">
					<dim>1</dim>
					<dim>38</dim>
					<dim>32</dim>
					<dim>56</dim>
				</port>
			</input>
		</layer>
	</layers>
	<edges>
		<edge from-layer="0" from-port="0" to-layer="2" to-port="0"/>
		<edge from-layer="1" from-port="0" to-layer="2" to-port="1"/>
		<edge from-layer="2" from-port="2" to-layer="4" to-port="0"/>
		<edge from-layer="3" from-port="0" to-layer="4" to-port="1"/>
		<edge from-layer="4" from-port="2" to-layer="6" to-port="0"/>
		<edge from-layer="5" from-port="0" to-layer="6" to-port="1"/>
		<edge from-layer="6" from-port="2" to-layer="7" to-port="0"/>
		<edge from-layer="7" from-port="1" to-layer="9" to-port="0"/>
		<edge from-layer="8" from-port="0" to-layer="9" to-port="1"/>
		<edge from-layer="9" from-port="2" to-layer="11" to-port="0"/>
		<edge from-layer="10" from-port="0" to-layer="11" to-port="1"/>
		<edge from-layer="11" from-port="2" to-layer="12" to-port="0"/>
		<edge from-layer="12" from-port="1" to-layer="14" to-port="0"/>
		<edge from-layer="13" from-port="0" to-layer="14" to-port="1"/>
		<edge from-layer="14" from-port="2" to-layer="16" to-port="0"/>
		<edge from-layer="15" from-port="0" to-layer="16" to-port="1"/>
		<edge from-layer="16" from-port="2" to-layer="17" to-port="0"/>
		<edge from-layer="17" from-port="1" to-layer="19" to-port="0"/>
		<edge from-layer="18" from-port="0" to-layer="19" to-port="1"/>
		<edge from-layer="19" from-port="2" to-layer="21" to-port="0"/>
		<edge from-layer="20" from-port="0" to-layer="21" to-port="1"/>
		<edge from-layer="21" from-port="2" to-layer="22" to-port="0"/>
		<edge from-layer="22" from-port="1" to-layer="24" to-port="0"/>
		<edge from-layer="23" from-port="0" to-layer="24" to-port="1"/>
		<edge from-layer="24" from-port="2" to-layer="26" to-port="0"/>
		<edge from-layer="25" from-port="0" to-layer="26" to-port="1"/>
		<edge from-layer="26" from-port="2" to-layer="27" to-port="0"/>
		<edge from-layer="27" from-port="1" to-layer="29" to-port="0"/>
		<edge from-layer="28" from-port="0" to-layer="29" to-port="1"/>
		<edge from-layer="29" from-port="2" to-layer="31" to-port="0"/>
		<edge from-layer="30" from-port="0" to-layer="31" to-port="1"/>
		<edge from-layer="31" from-port="2" to-layer="32" to-port="0"/>
		<edge from-layer="32" from-port="1" to-layer="34" to-port="0"/>
		<edge from-layer="33" from-port="0" to-layer="34" to-port="1"/>
		<edge from-layer="34" from-port="2" to-layer="36" to-port="0"/>
		<edge from-layer="35" from-port="0" to-layer="36" to-port="1"/>
		<edge from-layer="36" from-port="2" to-layer="37" to-port="0"/>
		<edge from-layer="37" from-port="1" to-layer="39" to-port="0"/>
		<edge from-layer="38" from-port="0" to-layer="39" to-port="1"/>
		<edge from-layer="39" from-port="2" to-layer="41" to-port="0"/>
		<edge from-layer="40" from-port="0" to-layer="41" to-port="1"/>
		<edge from-layer="41" from-port="2" to-layer="42" to-port="0"/>
		<edge from-layer="42" from-port="1" to-layer="44" to-port="0"/>
		<edge from-layer="43" from-port="0" to-layer="44" to-port="1"/>
		<edge from-layer="44" from-port="2" to-layer="46" to-port="0"/>
		<edge from-layer="45" from-port="0" to-layer="46" to-port="1"/>
		<edge from-layer="46" from-port="2" to-layer="47" to-port="0"/>
		<edge from-layer="47" from-port="1" to-layer="49" to-port="0"/>
		<edge from-layer="48" from-port="0" to-layer="49" to-port="1"/>
		<edge from-layer="49" from-port="2" to-layer="51" to-port="0"/>
		<edge from-layer="50" from-port="0" to-layer="51" to-port="1"/>
		<edge from-layer="51" from-port="2" to-layer="52" to-port="0"/>
		<edge from-layer="52" from-port="1" to-layer="54" to-port="0"/>
		<edge from-layer="53" from-port="0" to-layer="54" to-port="1"/>
		<edge from-layer="54" from-port="2" to-layer="56" to-port="0"/>
		<edge from-layer="55" from-port="0" to-layer="56" to-port="1"/>
		<edge from-layer="56" from-port="2" to-layer="57" to-port="0"/>
		<edge from-layer="57" from-port="1" to-layer="59" to-port="0"/>
		<edge from-layer="58" from-port="0" to-layer="59" to-port="1"/>
		<edge from-layer="59" from-port="2" to-layer="61" to-port="0"/>
		<edge from-layer="60" from-port="0" to-layer="61" to-port="1"/>
		<edge from-layer="61" from-port="2" to-layer="62" to-port="0"/>
		<edge from-layer="62" from-port="1" to-layer="64" to-port="0"/>
		<edge from-layer="63" from-port="0" to-layer="64" to-port="1"/>
		<edge from-layer="64" from-port="2" to-layer="66" to-port="0"/>
		<edge from-layer="65" from-port="0" to-layer="66" to-port="1"/>
		<edge from-layer="66" from-port="2" to-layer="67" to-port="0"/>
		<edge from-layer="67" from-port="1" to-layer="69" to-port="0"/>
		<edge from-layer="68" from-port="0" to-layer="69" to-port="1"/>
		<edge from-layer="69" from-port="2" to-layer="71" to-port="0"/>
		<edge from-layer="70" from-port="0" to-layer="71" to-port="1"/>
		<edge from-layer="71" from-port="2" to-layer="72" to-port="0"/>
		<edge from-layer="72" from-port="1" to-layer="74" to-port="0"/>
		<edge from-layer="73" from-port="0" to-layer="74" to-port="1"/>
		<edge from-layer="74" from-port="2" to-layer="76" to-port="0"/>
		<edge from-layer="75" from-port="0" to-layer="76" to-port="1"/>
		<edge from-layer="76" from-port="2" to-layer="77" to-port="0"/>
		<edge from-layer="77" from-port="1" to-layer="79" to-port="0"/>
		<edge from-layer="78" from-port="0" to-layer="79" to-port="1"/>
		<edge from-layer="79" from-port="2" to-layer="81" to-port="0"/>
		<edge from-layer="80" from-port="0" to-layer="81" to-port="1"/>
		<edge from-layer="81" from-port="2" to-layer="82" to-port="0"/>
		<edge from-layer="82" from-port="1" to-layer="84" to-port="0"/>
		<edge from-layer="83" from-port="0" to-layer="84" to-port="1"/>
		<edge from-layer="84" from-port="2" to-layer="86" to-port="0"/>
		<edge from-layer="85" from-port="0" to-layer="86" to-port="1"/>
		<edge from-layer="86" from-port="2" to-layer="87" to-port="0"/>
		<edge from-layer="87" from-port="1" to-layer="89" to-port="0"/>
		<edge from-layer="88" from-port="0" to-layer="89" to-port="1"/>
		<edge from-layer="89" from-port="2" to-layer="91" to-port="0"/>
		<edge from-layer="90" from-port="0" to-layer="91" to-port="1"/>
		<edge from-layer="91" from-port="2" to-layer="92" to-port="0"/>
		<edge from-layer="92" from-port="1" to-layer="94" to-port="0"/>
		<edge from-layer="93" from-port="0" to-layer="94" to-port="1"/>
		<edge from-layer="94" from-port="2" to-layer="96" to-port="0"/>
		<edge from-layer="95" from-port="0" to-layer="96" to-port="1"/>
		<edge from-layer="96" from-port="2" to-layer="97" to-port="0"/>
		<edge from-layer="97" from-port="1" to-layer="99" to-port="0"/>
		<edge from-layer="98" from-port="0" to-layer="99" to-port="1"/>
		<edge from-layer="99" from-port="2" to-layer="101" to-port="0"/>
		<edge from-layer="100" from-port="0" to-layer="101" to-port="1"/>
		<edge from-layer="101" from-port="2" to-layer="102" to-port="0"/>
		<edge from-layer="102" from-port="1" to-layer="104" to-port="0"/>
		<edge from-layer="103" from-port="0" to-layer="104" to-port="1"/>
		<edge from-layer="104" from-port="2" to-layer="106" to-port="0"/>
		<edge from-layer="105" from-port="0" to-layer="106" to-port="1"/>
		<edge from-layer="106" from-port="2" to-layer="107" to-port="0"/>
		<edge from-layer="107" from-port="1" to-layer="109" to-port="0"/>
		<edge from-layer="108" from-port="0" to-layer="109" to-port="1"/>
		<edge from-layer="109" from-port="2" to-layer="111" to-port="0"/>
		<edge from-layer="110" from-port="0" to-layer="111" to-port="1"/>
		<edge from-layer="111" from-port="2" to-layer="112" to-port="0"/>
		<edge from-layer="112" from-port="1" to-layer="114" to-port="0"/>
		<edge from-layer="113" from-port="0" to-layer="114" to-port="1"/>
		<edge from-layer="114" from-port="2" to-layer="116" to-port="0"/>
		<edge from-layer="115" from-port="0" to-layer="116" to-port="1"/>
		<edge from-layer="116" from-port="2" to-layer="117" to-port="0"/>
		<edge from-layer="117" from-port="1" to-layer="119" to-port="0"/>
		<edge from-layer="118" from-port="0" to-layer="119" to-port="1"/>
		<edge from-layer="119" from-port="2" to-layer="121" to-port="0"/>
		<edge from-layer="120" from-port="0" to-layer="121" to-port="1"/>
		<edge from-layer="121" from-port="2" to-layer="122" to-port="0"/>
		<edge from-layer="122" from-port="1" to-layer="124" to-port="0"/>
		<edge from-layer="122" from-port="1" to-layer="141" to-port="0"/>
		<edge from-layer="123" from-port="0" to-layer="124" to-port="1"/>
		<edge from-layer="124" from-port="2" to-layer="125" to-port="0"/>
		<edge from-layer="125" from-port="1" to-layer="127" to-port="0"/>
		<edge from-layer="126" from-port="0" to-layer="127" to-port="1"/>
		<edge from-layer="127" from-port="2" to-layer="128" to-port="0"/>
		<edge from-layer="128" from-port="1" to-layer="130" to-port="0"/>
		<edge from-layer="129" from-port="0" to-layer="130" to-port="1"/>
		<edge from-layer="130" from-port="2" to-layer="131" to-port="0"/>
		<edge from-layer="131" from-port="1" to-layer="133" to-port="0"/>
		<edge from-layer="132" from-port="0" to-layer="133" to-port="1"/>
		<edge from-layer="133" from-port="2" to-layer="134" to-port="0"/>
		<edge from-layer="134" from-port="1" to-layer="136" to-port="0"/>
		<edge from-layer="135" from-port="0" to-layer="136" to-port="1"/>
		<edge from-layer="136" from-port="2" to-layer="137" to-port="0"/>
		<edge from-layer="137" from-port="1" to-layer="139" to-port="0"/>
		<edge from-layer="138" from-port="0" to-layer="139" to-port="1"/>
		<edge from-layer="139" from-port="2" to-layer="140" to-port="0"/>
		<edge from-layer="140" from-port="1" to-layer="141" to-port="1"/>
		<edge from-layer="141" from-port="2" to-layer="143" to-port="0"/>
		<edge from-layer="142" from-port="0" to-layer="143" to-port="1"/>
		<edge from-layer="143" from-port="2" to-layer="145" to-port="0"/>
		<edge from-layer="144" from-port="0" to-layer="145" to-port="1"/>
		<edge from-layer="145" from-port="2" to-layer="146" to-port="0"/>
		<edge from-layer="146" from-port="1" to-layer="148" to-port="0"/>
		<edge from-layer="146" from-port="1" to-layer="288" to-port="0"/>
		<edge from-layer="146" from-port="1" to-layer="180" to-port="0"/>
		<edge from-layer="147" from-port="0" to-layer="148" to-port="1"/>
		<edge from-layer="148" from-port="2" to-layer="150" to-port="0"/>
		<edge from-layer="149" from-port="0" to-layer="150" to-port="1"/>
		<edge from-layer="150" from-port="2" to-layer="151" to-port="0"/>
		<edge from-layer="151" from-port="1" to-layer="153" to-port="0"/>
		<edge from-layer="152" from-port="0" to-layer="153" to-port="1"/>
		<edge from-layer="153" from-port="2" to-layer="155" to-port="0"/>
		<edge from-layer="154" from-port="0" to-layer="155" to-port="1"/>
		<edge from-layer="155" from-port="2" to-layer="156" to-port="0"/>
		<edge from-layer="156" from-port="1" to-layer="158" to-port="0"/>
		<edge from-layer="157" from-port="0" to-layer="158" to-port="1"/>
		<edge from-layer="158" from-port="2" to-layer="160" to-port="0"/>
		<edge from-layer="159" from-port="0" to-layer="160" to-port="1"/>
		<edge from-layer="160" from-port="2" to-layer="161" to-port="0"/>
		<edge from-layer="161" from-port="1" to-layer="163" to-port="0"/>
		<edge from-layer="161" from-port="1" to-layer="172" to-port="0"/>
		<edge from-layer="162" from-port="0" to-layer="163" to-port="1"/>
		<edge from-layer="163" from-port="2" to-layer="165" to-port="0"/>
		<edge from-layer="164" from-port="0" to-layer="165" to-port="1"/>
		<edge from-layer="165" from-port="2" to-layer="166" to-port="0"/>
		<edge from-layer="166" from-port="1" to-layer="168" to-port="0"/>
		<edge from-layer="167" from-port="0" to-layer="168" to-port="1"/>
		<edge from-layer="168" from-port="2" to-layer="170" to-port="0"/>
		<edge from-layer="169" from-port="0" to-layer="170" to-port="1"/>
		<edge from-layer="170" from-port="2" to-layer="180" to-port="1"/>
		<edge from-layer="171" from-port="0" to-layer="172" to-port="1"/>
		<edge from-layer="172" from-port="2" to-layer="174" to-port="0"/>
		<edge from-layer="173" from-port="0" to-layer="174" to-port="1"/>
		<edge from-layer="174" from-port="2" to-layer="175" to-port="0"/>
		<edge from-layer="175" from-port="1" to-layer="177" to-port="0"/>
		<edge from-layer="176" from-port="0" to-layer="177" to-port="1"/>
		<edge from-layer="177" from-port="2" to-layer="179" to-port="0"/>
		<edge from-layer="178" from-port="0" to-layer="179" to-port="1"/>
		<edge from-layer="179" from-port="2" to-layer="180" to-port="2"/>
		<edge from-layer="180" from-port="3" to-layer="182" to-port="0"/>
		<edge from-layer="181" from-port="0" to-layer="182" to-port="1"/>
		<edge from-layer="182" from-port="2" to-layer="184" to-port="0"/>
		<edge from-layer="183" from-port="0" to-layer="184" to-port="1"/>
		<edge from-layer="184" from-port="2" to-layer="185" to-port="0"/>
		<edge from-layer="185" from-port="1" to-layer="187" to-port="0"/>
		<edge from-layer="185" from-port="1" to-layer="196" to-port="0"/>
		<edge from-layer="186" from-port="0" to-layer="187" to-port="1"/>
		<edge from-layer="187" from-port="2" to-layer="189" to-port="0"/>
		<edge from-layer="188" from-port="0" to-layer="189" to-port="1"/>
		<edge from-layer="189" from-port="2" to-layer="190" to-port="0"/>
		<edge from-layer="190" from-port="1" to-layer="192" to-port="0"/>
		<edge from-layer="191" from-port="0" to-layer="192" to-port="1"/>
		<edge from-layer="192" from-port="2" to-layer="194" to-port="0"/>
		<edge from-layer="193" from-port="0" to-layer="194" to-port="1"/>
		<edge from-layer="194" from-port="2" to-layer="195" to-port="0"/>
		<edge from-layer="195" from-port="1" to-layer="196" to-port="1"/>
		<edge from-layer="196" from-port="2" to-layer="198" to-port="0"/>
		<edge from-layer="197" from-port="0" to-layer="198" to-port="1"/>
		<edge from-layer="198" from-port="2" to-layer="200" to-port="0"/>
		<edge from-layer="199" from-port="0" to-layer="200" to-port="1"/>
		<edge from-layer="200" from-port="2" to-layer="201" to-port="0"/>
		<edge from-layer="201" from-port="1" to-layer="203" to-port="0"/>
		<edge from-layer="201" from-port="1" to-layer="212" to-port="0"/>
		<edge from-layer="202" from-port="0" to-layer="203" to-port="1"/>
		<edge from-layer="203" from-port="2" to-layer="205" to-port="0"/>
		<edge from-layer="204" from-port="0" to-layer="205" to-port="1"/>
		<edge from-layer="205" from-port="2" to-layer="206" to-port="0"/>
		<edge from-layer="206" from-port="1" to-layer="208" to-port="0"/>
		<edge from-layer="207" from-port="0" to-layer="208" to-port="1"/>
		<edge from-layer="208" from-port="2" to-layer="210" to-port="0"/>
		<edge from-layer="209" from-port="0" to-layer="210" to-port="1"/>
		<edge from-layer="210" from-port="2" to-layer="211" to-port="0"/>
		<edge from-layer="211" from-port="1" to-layer="212" to-port="1"/>
		<edge from-layer="212" from-port="2" to-layer="214" to-port="0"/>
		<edge from-layer="213" from-port="0" to-layer="214" to-port="1"/>
		<edge from-layer="214" from-port="2" to-layer="216" to-port="0"/>
		<edge from-layer="215" from-port="0" to-layer="216" to-port="1"/>
		<edge from-layer="216" from-port="2" to-layer="217" to-port="0"/>
		<edge from-layer="217" from-port="1" to-layer="219" to-port="0"/>
		<edge from-layer="217" from-port="1" to-layer="228" to-port="0"/>
		<edge from-layer="218" from-port="0" to-layer="219" to-port="1"/>
		<edge from-layer="219" from-port="2" to-layer="221" to-port="0"/>
		<edge from-layer="220" from-port="0" to-layer="221" to-port="1"/>
		<edge from-layer="221" from-port="2" to-layer="222" to-port="0"/>
		<edge from-layer="222" from-port="1" to-layer="224" to-port="0"/>
		<edge from-layer="223" from-port="0" to-layer="224" to-port="1"/>
		<edge from-layer="224" from-port="2" to-layer="226" to-port="0"/>
		<edge from-layer="225" from-port="0" to-layer="226" to-port="1"/>
		<edge from-layer="226" from-port="2" to-layer="227" to-port="0"/>
		<edge from-layer="227" from-port="1" to-layer="228" to-port="1"/>
		<edge from-layer="228" from-port="2" to-layer="230" to-port="0"/>
		<edge from-layer="229" from-port="0" to-layer="230" to-port="1"/>
		<edge from-layer="230" from-port="2" to-layer="232" to-port="0"/>
		<edge from-layer="231" from-port="0" to-layer="232" to-port="1"/>
		<edge from-layer="232" from-port="2" to-layer="233" to-port="0"/>
		<edge from-layer="233" from-port="1" to-layer="235" to-port="0"/>
		<edge from-layer="233" from-port="1" to-layer="244" to-port="0"/>
		<edge from-layer="234" from-port="0" to-layer="235" to-port="1"/>
		<edge from-layer="235" from-port="2" to-layer="237" to-port="0"/>
		<edge from-layer="236" from-port="0" to-layer="237" to-port="1"/>
		<edge from-layer="237" from-port="2" to-layer="238" to-port="0"/>
		<edge from-layer="238" from-port="1" to-layer="240" to-port="0"/>
		<edge from-layer="239" from-port="0" to-layer="240" to-port="1"/>
		<edge from-layer="240" from-port="2" to-layer="242" to-port="0"/>
		<edge from-layer="241" from-port="0" to-layer="242" to-port="1"/>
		<edge from-layer="242" from-port="2" to-layer="243" to-port="0"/>
		<edge from-layer="243" from-port="1" to-layer="244" to-port="1"/>
		<edge from-layer="244" from-port="2" to-layer="246" to-port="0"/>
		<edge from-layer="245" from-port="0" to-layer="246" to-port="1"/>
		<edge from-layer="246" from-port="2" to-layer="248" to-port="0"/>
		<edge from-layer="247" from-port="0" to-layer="248" to-port="1"/>
		<edge from-layer="248" from-port="2" to-layer="249" to-port="0"/>
		<edge from-layer="249" from-port="1" to-layer="251" to-port="0"/>
		<edge from-layer="249" from-port="1" to-layer="260" to-port="0"/>
		<edge from-layer="250" from-port="0" to-layer="251" to-port="1"/>
		<edge from-layer="251" from-port="2" to-layer="253" to-port="0"/>
		<edge from-layer="252" from-port="0" to-layer="253" to-port="1"/>
		<edge from-layer="253" from-port="2" to-layer="254" to-port="0"/>
		<edge from-layer="254" from-port="1" to-layer="256" to-port="0"/>
		<edge from-layer="255" from-port="0" to-layer="256" to-port="1"/>
		<edge from-layer="256" from-port="2" to-layer="258" to-port="0"/>
		<edge from-layer="257" from-port="0" to-layer="258" to-port="1"/>
		<edge from-layer="258" from-port="2" to-layer="259" to-port="0"/>
		<edge from-layer="259" from-port="1" to-layer="260" to-port="1"/>
		<edge from-layer="260" from-port="2" to-layer="262" to-port="0"/>
		<edge from-layer="260" from-port="2" to-layer="275" to-port="0"/>
		<edge from-layer="261" from-port="0" to-layer="262" to-port="1"/>
		<edge from-layer="262" from-port="2" to-layer="264" to-port="0"/>
		<edge from-layer="263" from-port="0" to-layer="264" to-port="1"/>
		<edge from-layer="264" from-port="2" to-layer="265" to-port="0"/>
		<edge from-layer="265" from-port="1" to-layer="267" to-port="0"/>
		<edge from-layer="266" from-port="0" to-layer="267" to-port="1"/>
		<edge from-layer="267" from-port="2" to-layer="269" to-port="0"/>
		<edge from-layer="268" from-port="0" to-layer="269" to-port="1"/>
		<edge from-layer="269" from-port="2" to-layer="271" to-port="0"/>
		<edge from-layer="269" from-port="2" to-layer="272" to-port="0"/>
		<edge from-layer="269" from-port="2" to-layer="287" to-port="1"/>
		<edge from-layer="270" from-port="0" to-layer="271" to-port="1"/>
		<edge from-layer="271" from-port="2" to-layer="272" to-port="1"/>
		<edge from-layer="272" from-port="2" to-layer="273" to-port="0"/>
		<edge from-layer="274" from-port="0" to-layer="275" to-port="1"/>
		<edge from-layer="275" from-port="2" to-layer="277" to-port="0"/>
		<edge from-layer="276" from-port="0" to-layer="277" to-port="1"/>
		<edge from-layer="277" from-port="2" to-layer="278" to-port="0"/>
		<edge from-layer="278" from-port="1" to-layer="280" to-port="0"/>
		<edge from-layer="279" from-port="0" to-layer="280" to-port="1"/>
		<edge from-layer="280" from-port="2" to-layer="282" to-port="0"/>
		<edge from-layer="281" from-port="0" to-layer="282" to-port="1"/>
		<edge from-layer="282" from-port="2" to-layer="284" to-port="0"/>
		<edge from-layer="282" from-port="2" to-layer="285" to-port="0"/>
		<edge from-layer="282" from-port="2" to-layer="287" to-port="0"/>
		<edge from-layer="283" from-port="0" to-layer="284" to-port="1"/>
		<edge from-layer="284" from-port="2" to-layer="285" to-port="1"/>
		<edge from-layer="285" from-port="2" to-layer="286" to-port="0"/>
		<edge from-layer="287" from-port="2" to-layer="288" to-port="1"/>
		<edge from-layer="288" from-port="2" to-layer="290" to-port="0"/>
		<edge from-layer="288" from-port="2" to-layer="295" to-port="0"/>
		<edge from-layer="289" from-port="0" to-layer="290" to-port="1"/>
		<edge from-layer="290" from-port="2" to-layer="292" to-port="0"/>
		<edge from-layer="291" from-port="0" to-layer="292" to-port="1"/>
		<edge from-layer="292" from-port="2" to-layer="293" to-port="0"/>
		<edge from-layer="293" from-port="1" to-layer="309" to-port="0"/>
		<edge from-layer="294" from-port="0" to-layer="295" to-port="1"/>
		<edge from-layer="295" from-port="2" to-layer="297" to-port="0"/>
		<edge from-layer="296" from-port="0" to-layer="297" to-port="1"/>
		<edge from-layer="297" from-port="2" to-layer="298" to-port="0"/>
		<edge from-layer="298" from-port="1" to-layer="300" to-port="0"/>
		<edge from-layer="299" from-port="0" to-layer="300" to-port="1"/>
		<edge from-layer="300" from-port="2" to-layer="302" to-port="0"/>
		<edge from-layer="301" from-port="0" to-layer="302" to-port="1"/>
		<edge from-layer="302" from-port="2" to-layer="303" to-port="0"/>
		<edge from-layer="303" from-port="1" to-layer="305" to-port="0"/>
		<edge from-layer="304" from-port="0" to-layer="305" to-port="1"/>
		<edge from-layer="305" from-port="2" to-layer="307" to-port="0"/>
		<edge from-layer="306" from-port="0" to-layer="307" to-port="1"/>
		<edge from-layer="307" from-port="2" to-layer="308" to-port="0"/>
		<edge from-layer="308" from-port="1" to-layer="309" to-port="1"/>
		<edge from-layer="309" from-port="2" to-layer="311" to-port="0"/>
		<edge from-layer="309" from-port="2" to-layer="325" to-port="0"/>
		<edge from-layer="310" from-port="0" to-layer="311" to-port="1"/>
		<edge from-layer="311" from-port="2" to-layer="313" to-port="0"/>
		<edge from-layer="312" from-port="0" to-layer="313" to-port="1"/>
		<edge from-layer="313" from-port="2" to-layer="314" to-port="0"/>
		<edge from-layer="314" from-port="1" to-layer="316" to-port="0"/>
		<edge from-layer="315" from-port="0" to-layer="316" to-port="1"/>
		<edge from-layer="316" from-port="2" to-layer="318" to-port="0"/>
		<edge from-layer="317" from-port="0" to-layer="318" to-port="1"/>
		<edge from-layer="318" from-port="2" to-layer="319" to-port="0"/>
		<edge from-layer="319" from-port="1" to-layer="321" to-port="0"/>
		<edge from-layer="320" from-port="0" to-layer="321" to-port="1"/>
		<edge from-layer="321" from-port="2" to-layer="323" to-port="0"/>
		<edge from-layer="322" from-port="0" to-layer="323" to-port="1"/>
		<edge from-layer="323" from-port="2" to-layer="324" to-port="0"/>
		<edge from-layer="324" from-port="1" to-layer="325" to-port="1"/>
		<edge from-layer="325" from-port="2" to-layer="327" to-port="0"/>
		<edge from-layer="325" from-port="2" to-layer="341" to-port="0"/>
		<edge from-layer="326" from-port="0" to-layer="327" to-port="1"/>
		<edge from-layer="327" from-port="2" to-layer="329" to-port="0"/>
		<edge from-layer="328" from-port="0" to-layer="329" to-port="1"/>
		<edge from-layer="329" from-port="2" to-layer="330" to-port="0"/>
		<edge from-layer="330" from-port="1" to-layer="332" to-port="0"/>
		<edge from-layer="331" from-port="0" to-layer="332" to-port="1"/>
		<edge from-layer="332" from-port="2" to-layer="334" to-port="0"/>
		<edge from-layer="333" from-port="0" to-layer="334" to-port="1"/>
		<edge from-layer="334" from-port="2" to-layer="335" to-port="0"/>
		<edge from-layer="335" from-port="1" to-layer="337" to-port="0"/>
		<edge from-layer="336" from-port="0" to-layer="337" to-port="1"/>
		<edge from-layer="337" from-port="2" to-layer="339" to-port="0"/>
		<edge from-layer="338" from-port="0" to-layer="339" to-port="1"/>
		<edge from-layer="339" from-port="2" to-layer="340" to-port="0"/>
		<edge from-layer="340" from-port="1" to-layer="341" to-port="1"/>
		<edge from-layer="341" from-port="2" to-layer="343" to-port="0"/>
		<edge from-layer="341" from-port="2" to-layer="357" to-port="0"/>
		<edge from-layer="342" from-port="0" to-layer="343" to-port="1"/>
		<edge from-layer="343" from-port="2" to-layer="345" to-port="0"/>
		<edge from-layer="344" from-port="0" to-layer="345" to-port="1"/>
		<edge from-layer="345" from-port="2" to-layer="346" to-port="0"/>
		<edge from-layer="346" from-port="1" to-layer="348" to-port="0"/>
		<edge from-layer="347" from-port="0" to-layer="348" to-port="1"/>
		<edge from-layer="348" from-port="2" to-layer="350" to-port="0"/>
		<edge from-layer="349" from-port="0" to-layer="350" to-port="1"/>
		<edge from-layer="350" from-port="2" to-layer="351" to-port="0"/>
		<edge from-layer="351" from-port="1" to-layer="353" to-port="0"/>
		<edge from-layer="352" from-port="0" to-layer="353" to-port="1"/>
		<edge from-layer="353" from-port="2" to-layer="355" to-port="0"/>
		<edge from-layer="354" from-port="0" to-layer="355" to-port="1"/>
		<edge from-layer="355" from-port="2" to-layer="356" to-port="0"/>
		<edge from-layer="356" from-port="1" to-layer="357" to-port="1"/>
		<edge from-layer="357" from-port="2" to-layer="359" to-port="0"/>
		<edge from-layer="357" from-port="2" to-layer="373" to-port="0"/>
		<edge from-layer="358" from-port="0" to-layer="359" to-port="1"/>
		<edge from-layer="359" from-port="2" to-layer="361" to-port="0"/>
		<edge from-layer="360" from-port="0" to-layer="361" to-port="1"/>
		<edge from-layer="361" from-port="2" to-layer="362" to-port="0"/>
		<edge from-layer="362" from-port="1" to-layer="364" to-port="0"/>
		<edge from-layer="363" from-port="0" to-layer="364" to-port="1"/>
		<edge from-layer="364" from-port="2" to-layer="366" to-port="0"/>
		<edge from-layer="365" from-port="0" to-layer="366" to-port="1"/>
		<edge from-layer="366" from-port="2" to-layer="367" to-port="0"/>
		<edge from-layer="367" from-port="1" to-layer="369" to-port="0"/>
		<edge from-layer="368" from-port="0" to-layer="369" to-port="1"/>
		<edge from-layer="369" from-port="2" to-layer="371" to-port="0"/>
		<edge from-layer="370" from-port="0" to-layer="371" to-port="1"/>
		<edge from-layer="371" from-port="2" to-layer="372" to-port="0"/>
		<edge from-layer="372" from-port="1" to-layer="373" to-port="1"/>
		<edge from-layer="373" from-port="2" to-layer="375" to-port="0"/>
		<edge from-layer="374" from-port="0" to-layer="375" to-port="1"/>
		<edge from-layer="375" from-port="2" to-layer="377" to-port="0"/>
		<edge from-layer="376" from-port="0" to-layer="377" to-port="1"/>
		<edge from-layer="377" from-port="2" to-layer="378" to-port="0"/>
		<edge from-layer="378" from-port="1" to-layer="380" to-port="0"/>
		<edge from-layer="378" from-port="1" to-layer="389" to-port="0"/>
		<edge from-layer="379" from-port="0" to-layer="380" to-port="1"/>
		<edge from-layer="380" from-port="2" to-layer="382" to-port="0"/>
		<edge from-layer="381" from-port="0" to-layer="382" to-port="1"/>
		<edge from-layer="382" from-port="2" to-layer="383" to-port="0"/>
		<edge from-layer="383" from-port="1" to-layer="385" to-port="0"/>
		<edge from-layer="384" from-port="0" to-layer="385" to-port="1"/>
		<edge from-layer="385" from-port="2" to-layer="387" to-port="0"/>
		<edge from-layer="386" from-port="0" to-layer="387" to-port="1"/>
		<edge from-layer="387" from-port="2" to-layer="388" to-port="0"/>
		<edge from-layer="388" from-port="1" to-layer="389" to-port="1"/>
		<edge from-layer="389" from-port="2" to-layer="391" to-port="0"/>
		<edge from-layer="390" from-port="0" to-layer="391" to-port="1"/>
		<edge from-layer="391" from-port="2" to-layer="393" to-port="0"/>
		<edge from-layer="392" from-port="0" to-layer="393" to-port="1"/>
		<edge from-layer="393" from-port="2" to-layer="394" to-port="0"/>
		<edge from-layer="394" from-port="1" to-layer="396" to-port="0"/>
		<edge from-layer="394" from-port="1" to-layer="405" to-port="0"/>
		<edge from-layer="395" from-port="0" to-layer="396" to-port="1"/>
		<edge from-layer="396" from-port="2" to-layer="398" to-port="0"/>
		<edge from-layer="397" from-port="0" to-layer="398" to-port="1"/>
		<edge from-layer="398" from-port="2" to-layer="399" to-port="0"/>
		<edge from-layer="399" from-port="1" to-layer="401" to-port="0"/>
		<edge from-layer="400" from-port="0" to-layer="401" to-port="1"/>
		<edge from-layer="401" from-port="2" to-layer="403" to-port="0"/>
		<edge from-layer="402" from-port="0" to-layer="403" to-port="1"/>
		<edge from-layer="403" from-port="2" to-layer="404" to-port="0"/>
		<edge from-layer="404" from-port="1" to-layer="405" to-port="1"/>
		<edge from-layer="405" from-port="2" to-layer="407" to-port="0"/>
		<edge from-layer="406" from-port="0" to-layer="407" to-port="1"/>
		<edge from-layer="407" from-port="2" to-layer="409" to-port="0"/>
		<edge from-layer="408" from-port="0" to-layer="409" to-port="1"/>
		<edge from-layer="409" from-port="2" to-layer="410" to-port="0"/>
		<edge from-layer="410" from-port="1" to-layer="412" to-port="0"/>
		<edge from-layer="411" from-port="0" to-layer="412" to-port="1"/>
		<edge from-layer="412" from-port="2" to-layer="414" to-port="0"/>
		<edge from-layer="413" from-port="0" to-layer="414" to-port="1"/>
		<edge from-layer="414" from-port="2" to-layer="415" to-port="0"/>
	</edges>
	<meta_data>
		<MO_version value="2022.1.0-7019-cdb9bec7210-releases/2022/1"/>
		<Runtime_version value="2022.1.0-7019-cdb9bec7210-releases/2022/1"/>
		<legacy_path value="False"/>
		<cli_parameters>
			<caffe_parser_path value="DIR"/>
			<compress_fp16 value="False"/>
			<data_type value="FP32"/>
			<disable_nhwc_to_nchw value="False"/>
			<disable_omitting_optional value="False"/>
			<disable_resnet_optimization value="False"/>
			<disable_weights_compression value="False"/>
			<enable_concat_optimization value="False"/>
			<enable_flattening_nested_params value="False"/>
			<enable_ssd_gluoncv value="False"/>
			<extensions value="DIR"/>
			<framework value="onnx"/>
			<freeze_placeholder_with_value value="{}"/>
			<input value="data"/>
			<input_model value="DIR\human-pose-estimation-3d-0001.onnx"/>
			<input_model_is_text value="False"/>
			<input_shape value="[1, 3, 256, 448]"/>
			<k value="DIR\CustomLayersMapping.xml"/>
			<layout value="data(NCHW)"/>
			<layout_values value="{'data': {'source_layout': 'NCHW', 'target_layout': None, 'is_input': True}}"/>
			<legacy_mxnet_model value="False"/>
			<log_level value="ERROR"/>
			<mean_scale_values value="{'data': {'mean': array([128., 128., 128.]), 'scale': array([255., 255., 255.])}}"/>
			<mean_values value="data[128.0,128.0,128.0]"/>
			<model_name value="human-pose-estimation-3d-0001"/>
			<output value="['features', 'heatmaps', 'pafs']"/>
			<output_dir value="DIR"/>
			<placeholder_data_types value="{}"/>
			<placeholder_shapes value="{'data': (1, 3, 256, 448)}"/>
			<progress value="False"/>
			<remove_memory value="False"/>
			<remove_output_softmax value="False"/>
			<reverse_input_channels value="False"/>
			<save_params_from_nd value="False"/>
			<scale_values value="data[255.0,255.0,255.0]"/>
			<silent value="False"/>
			<source_layout value="()"/>
			<static_shape value="False"/>
			<stream_output value="False"/>
			<target_layout value="()"/>
			<transform value=""/>
			<use_legacy_frontend value="False"/>
			<use_new_frontend value="False"/>
			<unset unset_cli_parameters="batch, counts, disable_fusing, finegrain_fusing, input_checkpoint, input_meta_graph, input_proto, input_symbol, mean_file, mean_file_offsets, nd_prefix_name, pretrained_model_name, saved_model_dir, saved_model_tags, scale, tensorboard_logdir, tensorflow_custom_layer_libraries, tensorflow_custom_operations_config_update, tensorflow_object_detection_api_pipeline_config, tensorflow_use_custom_operations_config, transformations_config"/>
		</cli_parameters>
	</meta_data>
</net>
